27ml_rf/models/radio_27ml_w8a8_export.onnx (onnx, 668555 bytes, 47 tensors)

2.weight f4 [64]
1.6361843 1.7390064 1.6042665 1.6607023 1.452308 1.3621577 1.6928694 0.90847003
1.3996332 1.7005261 1.0212601 1.1394871 1.5583187 1.4313661 1.6825094 1.1336675
1.2375019 1.0765544 1.1845456 1.4543072 1.7384856 1.3369765 1.6841325 1.6474187
1.4633234 1.4664893 1.4085981 1.652867 1.099102 1.7309979 1.4228691 1.3036783
1.6147465 0.8337785 1.5483391 1.1457653 2.2587655 1.4682022 1.2368258 1.925702
1.8305101 0.91636986 1.0049268 1.6902645 1.5269119 1.6580961 0.72281736 1.9634608
0.81465846 1.5396411 0.7964873 1.3999398 1.8392913 1.7917334 1.3148348 1.1560819
1.8750848 1.6764402 1.4597297 1.6867837 1.5474076 2.2400026 1.732832 1.3232503
00000000: 7d6e d13f c397 de3f 9b58 cd3f e591 d43f
00000010: 3be5 b93f 2f5b ae3f f2af d83f 7e91 683f
00000020: 2e27 b33f d7aa d93f a7b8 823f b7da 913f
00000030: fd76 c73f 0137 b73f 785c d73f 041c 913f
00000040: 7666 9e3f 89cc 893f 319f 973f bd26 ba3f
00000050: b286 de3f 0c22 ab3f a791 d73f 9ede d23f
00000060: 2e4e bb3f ecb5 bb3f f14c b43f 2591 d33f
00000070: 60af 8c3f 5791 dd3f 9320 b63f eede a63f
00000080: 03b0 ce3f 8272 553f fa2f c63f 70a8 923f
00000090: 9d8f 1040 0dee bb3f 4f50 9e3f 677d f63f
000000a0: 284e ea3f 3797 6a3f 71a1 803f 965a d83f
000000b0: d971 c33f 7e3c d43f 8f0a 393f af52 fb3f
000000c0: 758d 503f f612 c53f 97e6 4b3f 3a31 b33f
000000d0: e66d eb3f 8557 e53f 824c a83f 7efa 933f
000000e0: c702 f03f 9895 d63f 6cd8 ba3f 87e8 d73f
000000f0: 7411 c63f 345c 0f40 70cd dd3f 4460 a93f

2.bias f4 [64]
-1.0737207 -1.0625081 -0.32457396 -1.2287396 0.5351071 0.026043057 -1.2165303 -0.01940838
-0.23514986 -0.67163736 -0.403413 -0.1899668 -0.38523075 -1.0196486 -1.2411478 -0.45998445
-0.65108865 -0.41115934 -0.8804313 -1.1820828 -1.3428608 -0.1651092 -0.31448016 -0.62631637
-0.63902587 -0.3713782 0.95168823 -1.2171183 -0.59307677 -0.13780852 0.65632963 -0.293364
-1.19118 0.4006871 1.0887209 -0.34551752 -0.3102666 -0.93685466 0.5704545 -1.4427564
-1.3586738 -0.7085887 0.7032317 1.2652694 -0.9682264 0.8327304 -0.009515265 -1.4436423
-0.41813946 -0.18245128 -0.27004746 -0.806677 -1.3643638 -1.3680724 0.24201308 -0.41147336
1.3361987 -0.75046015 -1.0434384 -1.449284 0.6619278 -0.39911273 -1.3363693 0.47342443
00000000: ae6f 89bf 4400 88bf 8f2e a6be 5747 9dbf
00000010: c7fc 083f 4058 d53c 44b7 9bbf 53fe 9ebc
00000020: 20cb 70be 6df0 2bbf 268c cebe a886 42be
00000030: f73c c5be d883 82bf eedd 9ebf 1583 ebbe
00000040: bfad 26bf 7a83 d2be f263 61bf 7d4e 97bf
00000050: dde2 abbf 6312 29be 8b03 a1be 4556 20bf
00000060: 3397 23bf 4925 bebe d7a1 733f 88ca 9bbf
00000070: e1d3 17bf ad1d 0dbe 3805 283f ce33 96be
00000080: 9678 98bf dc26 cd3e 355b 8b3f ace7 b0be
00000090: 44db 9ebe b5d5 6fbf 4e09 123f 3eac b8bf
000000a0: 06e9 adbf 1266 35bf fe06 343f 59f4 a13f
000000b0: afdd 77bf d22d 553f eae5 1bbc 45c9 b8bf
000000c0: 6016 d6be 82d4 3abe a943 8abe 6282 4ebf
000000d0: 79a3 aebf ff1c afbf 47d2 773e a3ac d2be
000000e0: 8f08 ab3f 281e 40bf 648f 85bf 2382 b9bf
000000f0: 1a74 293f 8158 ccbe 260e abbf b064 f23e

2.running_mean f4 [64]
-0.17288527 -0.1930086 0.18408522 0.21190295 -0.20093535 -0.20263124 0.06605473 0.111236766
0.20827924 -0.2439429 0.1321304 -0.012695792 -0.16959657 0.18405041 -0.030700535 -0.19413887
0.07772642 -0.035566807 0.12804167 0.16521354 -0.18679966 0.010720452 -0.0042907395 0.058103207
-0.075716704 0.118798144 -0.19406746 0.16112031 0.025994148 9.559141e-05 0.063150376 0.21183346
0.046802394 -0.043855544 0.23832782 -0.12840909 -0.0011668191 0.015665967 0.20133561 -0.26480624
-0.21758455 -0.031446118 -0.23787987 0.23359331 0.2180641 0.029868592 -0.08718776 0.23597205
0.15235272 0.0010794834 -0.013562928 -0.19018899 -0.0070379796 -0.12968144 -0.16645701 0.02526492
-0.22541752 -0.032493535 0.21529013 -0.2159169 0.22298421 -0.0034956168 0.23300591 -0.047191873
00000000: d608 31be 0ca4 45be d680 3c3e 16fd 583e
00000010: ffc1 4dbe 907e 4fbe b447 873d 1ad0 e33d
00000020: 2747 553e 2bcc 79be 314d 073e 0302 50bc
00000030: b9aa 2dbe b677 3c3e b07f fbbc 57cc 46be
00000040: 072f 9f3d 80ae 11bd 5b1d 033e bd2d 293e
00000050: 6948 3fbe d6a4 2f3c 5599 8cbb a1fd 6d3d
00000060: 5c11 9bbd 714c f33d 9fb9 46be b9fc 243e
00000070: aef1 d43c 3f78 c838 fc54 813d dfea 583e
00000080: deb3 3f3d dfa1 33bd 350c 743e ac7d 03be
00000090: f4ef 98ba ea55 803c ec2a 4e3e af94 87be
000000a0: 7cce 5ebe a5cd 00bd c896 73be 1633 6f3e
000000b0: 324c 5f3e faae f43c 7f8f b2bd a8a2 713e
000000c0: 5a02 1c3e 747d 8d3a 0b37 5ebc e7c0 42be
000000d0: da9e e6bb 36cb 04be b573 2abe 61f8 ce3c
000000e0: dad3 66be f117 05bd 0475 5c3e 5219 5dbe
000000f0: f955 643e b816 65bb 1a99 6e3e 444c 41bd

2.running_var f4 [64]
5677.67 4610.6494 3731.8127 3955.1304 3718.6553 6569.4014 3482.8247 3097.8977
5791.5664 5658.711 3586.838 856.7315 7421.121 6939.005 4059.4236 3471.241
2415.8345 3999.329 2242.2112 2763.3206 8097.4507 3284.7356 950.4484 3617.459
2610.9358 5559.2417 6988.066 9003.621 1456.0074 851.6326 3895.4993 4516.0923
4848.7305 2662.368 6824.801 4140.5337 1077.8154 3127.3235 5914.4927 6857.5986
9373.807 1413.6932 5881.4346 7773.083 5173.524 5252.4106 1473.3008 8941.668
2451.16 868.6021 2186.0403 3358.21 4433.8467 7306.749 5538.005 1186.9479
9406.88 3698.005 4360.436 4330.144 4407.567 1090.4092 6620.7383 4784.634
00000000: 5c6d b145 3215 9045 013d 6945 1632 7745
00000010: 7c6a 6845 364b cd45 32ad 5945 5d9e 4145
00000020: 88fc b445 b0d5 b045 682d 6045 d12e 5644
00000030: f8e8 e745 0ad8 d845 c7b6 7d45 dbf3 5845
00000040: 5afd 1645 44f5 7945 6123 0c45 21b5 2c45
00000050: 9b0b fd45 c54b 4d45 b39c 6d44 5817 6245
00000060: f92e 2345 efb9 ad45 8760 da45 7cae 0c46
00000070: 3d00 b644 7de8 5444 fd77 7345 bd20 8d45
00000080: d885 9745 e365 2645 6846 d545 4564 8145
00000090: 18ba 8644 2d75 4345 f1d3 b845 ca4c d645
000000a0: 3a77 1246 2fb6 b044 7acb b745 aae8 f245
000000b0: 31ac a145 4923 a445 a029 b844 acb6 0b46
000000c0: 8f32 1945 8926 5944 a5a0 0845 5ce3 5145
000000d0: c68e 8a45 fe55 e445 0a10 ad45 555e 9444
000000e0: 85fb 1246 1420 6745 7d43 8845 2751 8745
000000f0: 89bc 8945 184d 8844 e8e5 ce45 1285 9545

6.weight f4 [64]
1.3772255 1.3404057 1.5840592 1.3051754 2.708511 1.1563556 1.4211653 1.0789278
2.7957988 1.1252906 1.1422486 1.6458354 1.4425358 1.7861634 1.4679328 1.1524618
2.5949733 1.6880683 1.0312933 1.7364582 1.2589066 1.6667514 1.1813791 2.2517362
1.336747 1.3611606 1.3696877 1.453431 1.691742 1.6880022 2.1003883 1.2995651
1.035533 1.6451422 1.3801003 1.1320345 1.3178115 1.6526101 1.4302375 1.5441538
2.0522523 2.1372683 1.1821152 1.3151015 1.2379283 1.602757 1.299999 1.3277532
1.3375665 2.1225712 1.3977354 1.6747559 1.1045446 2.5810208 1.3906578 1.6646225
1.3040864 1.5303696 1.4272399 1.7343374 1.478738 0.96748334 1.3651826 1.3968141
00000000: ed48 b03f 6a92 ab3f 74c2 ca3f fd0f a73f
00000010: 3f58 2d40 7603 943f bfe8 b53f 4e1a 8a3f
00000020: 5eee 3240 8609 903f 3435 923f bcaa d23f
00000030: 03a5 b83f 01a1 e43f 39e5 bb3f de83 933f
00000040: 0b14 2640 9f12 d83f 6b01 843f 4344 de3f
00000050: da23 a13f 1c58 d53f 6e37 973f 721c 1040
00000060: 871a ab3f 833a ae3f ed51 af3f 070a ba3f
00000070: 008b d83f 7510 d83f c36c 0640 2658 a63f
00000080: 588c 843f 0594 d23f 20a7 b03f 82e6 903f
00000090: 0cae a83f ba88 d33f 0612 b73f d5a6 c53f
000000a0: 1a58 0340 01c9 0840 8d4f 973f 3f55 a83f
000000b0: 6f74 9e3f 2427 cd3f 5e66 a63f d1f3 a93f
000000c0: 6135 ab3f 35d8 0740 fee8 b23f 675e d63f
000000d0: b861 8d3f 722f 2540 1301 b23f 5a12 d53f
000000e0: 4eec a63f 27e3 c33f ccaf b63f c5fe dd3f
000000f0: 4947 bd3f fdac 773f 4ebe ae3f ceca b23f

6.bias f4 [64]
-0.20601216 -0.5057889 -0.6557574 -0.74140054 -1.7114098 -0.24915753 -0.68431914 -0.39868814
-1.6220651 -0.42571744 -0.6366681 -1.0092465 -0.49455744 -1.1954566 -0.70697826 -0.50242823
3.8916225 0.1296799 -0.34885073 -0.44053748 -0.7670188 -1.206448 -0.25042373 3.4278395
-0.6336269 -0.97712094 -0.9266014 -0.5744638 -0.3706586 -0.6315938 -1.5032973 -0.6048211
-0.9325882 -0.53584903 -0.24973585 -0.2587361 -0.73750293 -0.3503612 -0.43705142 -0.64752614
-1.3630712 -1.4971968 -0.68148047 -0.34224206 -0.24742728 -0.654157 -0.55373394 -0.6592915
-0.840002 -1.4663259 -0.543062 -0.52999425 -0.5055403 -2.0515683 -0.64136505 -0.29870433
-0.39898583 -1.0355444 -0.8722056 -0.7999886 -0.4087042 -0.22832265 -0.8188373 -0.3132872
00000000: daf4 52be 627b 01bf b8df 27bf 6dcc 3dbf
00000010: 7a0f dbbf 2723 7fbe 8a2f 2fbf da20 ccbe
00000020: d49f cfbf a3f7 d9be aefc 22bf fd2e 81bf
00000030: a236 fdbe b904 99bf 87fc 34bf 239f 00bf
00000040: 5810 7940 cfca 043e 909c b2be 218e e1be
00000050: 585b 44bf e36c 9abf 8a37 80be b961 5b40
00000060: 5f35 22bf 9924 7abf c035 6dbf 0f10 13bf
00000070: f7c6 bdbe 22b0 21bf 0c6c c0bf 8ed5 1abf
00000080: 1abe 6ebf 672d 09bf c1ba 7fbe 0f79 84be
00000090: fecc 3cbf 8b62 b3be 34c5 dfbe 46c4 25bf
000000a0: 1e79 aebf 25a4 bfbf 8175 2ebf 5a3a afbe
000000b0: 945d 7dbe d576 27bf 82c1 0dbf 54c7 28bf
000000c0: 5f0a 57bf 91b0 bbbf 1c06 0bbf b4ad 07bf
000000d0: 176b 01bf e54c 03c0 8030 24bf c6ef 98be
000000e0: df47 ccbe b88c 84bf de48 5fbf 0ecc 4cbf
000000f0: ad41 d1be 6acd 69be 529f 51bf 2e67 a0be

6.running_mean f4 [64]
-15.356153 -25.99257 -9.227505 -32.879963 12.271758 21.121916 -16.326504 29.58257
-97.00874 -38.88988 10.493505 -31.026148 33.032017 -5.3597636 -19.820396 18.014488
-57.60427 91.75666 -22.735537 -4.6983285 -19.414148 -10.057919 21.845985 -75.8225
-33.41182 11.4715605 13.21628 -15.590136 -55.134857 -41.404606 -2.2215197 4.4855137
-26.762167 -35.315357 44.23129 31.932072 -40.57489 -46.74586 -46.845726 -26.890196
-1.7643753 -3.476166 1.5927066 -65.045784 40.872196 -26.560865 -3.262056 -20.20729
5.0085583 -7.592829 13.574611 -0.6850084 -70.30878 -10.459101 -22.87439 -57.02315
-67.03064 -8.150415 -27.384237 -23.480492 -34.23788 32.52143 -39.00573 -46.048927
00000000: cdb2 75c1 c9f0 cfc1 dca3 13c1 1585 03c2
00000010: 1f59 4441 aff9 a841 ae9c 82c1 1aa9 ec41
00000020: 7a04 c2c2 3d8f 1bc2 65e5 2741 8d35 f8c1
00000030: c920 0442 2f83 abc0 2c90 9ec1 ac1d 9041
00000040: c66a 66c2 6983 b742 61e2 b5c1 b558 96c0
00000050: 2d50 9bc1 3ced 20c1 94c4 ae41 1fa5 97c2
00000060: b4a5 05c2 838b 3741 e275 5341 3271 79c1
00000070: 188a 5cc2 519e 25c2 612d 0ec0 5489 8f40
00000080: eb18 d6c1 ed42 0dc2 d7ec 3042 e274 ff41
00000090: b04c 22c2 c3fb 3ac2 0662 3bc2 1f1f d7c1
000000a0: 0dd7 e1bf 8179 5ec0 cfdd cb3f 7117 82c2
000000b0: 217d 2342 a77c d4c1 87c5 50c0 88a8 a1c1
000000c0: 1c46 a040 75f8 f2c0 9b31 5941 b65c 2fbf
000000d0: 189e 8cc2 7a58 27c1 c0fe b6c1 b517 64c2
000000e0: b00f 86c2 1a68 02c1 eb12 dbc1 0cd8 bbc1
000000f0: 97f3 08c2 f215 0242 de05 1cc2 1a32 38c2

6.running_var f4 [64]
1789.8997 2240.4883 492.5496 1612.5901 582.8237 1596.0211 981.92737 1333.2909
1680.727 2240.9749 625.5161 1457.0623 710.8152 412.51907 2285.9307 586.11835
1471.1594 1263.9491 1947.7786 1395.7576 1065.5259 335.13986 1522.8053 1481.5438
1431.4785 479.46844 401.57828 1542.7322 3237.5063 2660.857 564.7357 1354.3722
1363.4678 2163.4207 1538.6177 1245.3241 895.0131 3231.927 2116.3193 3048.5957
585.0679 439.09177 2384.1616 2732.6655 1237.6827 1921.0718 1131.7067 887.2476
592.41565 581.8534 2050.094 1063.4705 2122.3142 682.99615 1387.9077 2898.6707
2460.9155 629.3573 554.3898 2149.8484 3335.8755 1600.8904 984.00635 2807.8875
00000000: cabc df44 d007 0c45 5946 f643 e292 c944
00000010: b8b4 1144 ad80 c744 5a7b 7544 4fa9 a644
00000020: 4417 d244 990f 0c45 0861 1c44 fe21 b644
00000030: 2cb4 3144 7142 ce43 e4de 0e45 9387 1244
00000040: 1ae5 b744 5ffe 9d44 ea78 f344 3e78 ae44
00000050: d430 8544 e791 a743 c559 be44 6731 b944
00000060: 50ef b244 f6bb ef43 05ca c843 6ed7 c044
00000070: 1a58 4a45 b64d 2645 162f 0d44 e94b a944
00000080: f86e aa44 bb36 0745 c453 c044 5faa 9b44
00000090: d7c0 5f44 d5fe 4945 1c45 0445 8889 3e45
000000a0: 5844 1244 bf8b db43 9602 1545 a6ca 2a45
000000b0: d9b5 9a44 4c22 f044 9d76 8d44 d9cf 5d44
000000c0: 9a1a 1444 9e76 1144 8121 0045 0eef 8444
000000d0: 07a5 0445 c1bf 2a44 0c7d ad44 bb2a 3545
000000e0: a6ce 1945 de56 1d44 f298 0a44 935d 0645
000000f0: 027e 5045 7e1c c844 6800 7644 337e 2f45

10.weight f4 [64]
0.99016184 0.7670604 1.3230557 1.2147558 1.1746012 2.1657205 1.1992738 4.112543
1.2679104 1.607028 1.7237334 1.022663 1.2734638 1.7409751 1.0059538 1.3958925
1.2193296 1.2475872 0.6871073 1.4215081 1.7587574 1.4608922 1.2154996 1.5763047
1.6044384 1.8849466 1.4610527 1.32972 1.214659 1.5141786 1.3318566 1.525725
2.3142648 1.339685 2.2811656 0.8620535 0.88301194 2.2051477 1.383861 1.7865627
1.3559439 1.4922377 2.8180046 1.9134462 1.1202585 2.1932352 1.3272686 2.0234082
1.4379163 1.3799144 1.368697 1.2563144 1.4392638 1.4101022 0.98153466 0.94615495
1.5757561 1.1011454 1.3433528 1.394041 1.2587188 1.1972741 1.7124182 1.4706808
00000000: 3f7b 7d3f 125e 443f e459 a93f 1e7d 9b3f
00000010: 5559 963f 2a9b 0a40 ce81 993f f499 8340
00000020: e34a a23f 18b3 cd3f 4ca3 dc3f 9fe6 823f
00000030: dd00 a33f 46d8 de3f 18c3 803f 9bac b23f
00000040: fe12 9c3f f0b0 9f3f 44e6 2f3f faf3 b53f
00000050: f61e e13f 84fe ba3f 7e95 9b3f 5ac4 c93f
00000060: 3d5e cd3f ee45 f13f c603 bb3f 4434 aa3f
00000070: f279 9b3f 9bd0 c13f 477a aa3f f54a c33f
00000080: ea1c 1440 cc7a ab3f 9efe 1140 8aaf 5c3f
00000090: 120d 623f 2421 0d40 5b22 b13f 16ae e43f
000000a0: 928f ad3f a501 bf3f 305a 3440 ceeb f43f
000000b0: a164 8f3f f75d 0c40 f0e3 a93f 857f 0140
000000c0: a40d b83f 09a1 b03f 7731 af3f e9ce a03f
000000d0: cc39 b83f 3b7e b43f db45 7b3f 3637 723f
000000e0: 60b2 c93f 55f2 8c3f fcf2 ab3f ef6f b23f
000000f0: b31d a13f 4740 993f 8530 db3f 453f bc3f

10.bias f4 [64]
-0.6786552 -0.012145793 -0.34359887 -1.0882994 -0.18297723 -1.4557403 -0.14481296 -1.0725198
-0.6502371 -1.0007055 -0.40040848 -0.6758932 -0.28012276 -2.146613 -0.3598899 -0.07984539
-1.1769575 -1.0496808 -0.24360493 -1.0601372 -1.4590011 -0.30537444 -0.994147 -1.1028757
-0.87971973 -1.4207611 -1.812728 -0.3116274 -0.51147044 -1.2939268 -0.97203314 -0.35942882
-1.377832 -0.7562955 0.20496759 0.47879088 -0.54265785 -1.4472735 -1.9260687 -0.4433794
-0.78329927 -0.8303342 -0.34293032 -2.4480486 -1.4018971 -1.3506987 -1.1408848 -1.3657948
-0.94906026 0.039142136 -0.8632147 -1.34658 -1.064751 -1.219505 -0.12540692 0.101399094
-1.3624611 -0.05009488 -1.7200614 -0.90713555 -0.8639997 -0.6826158 -1.3819021 -0.8932476
00000000: 59bc 2dbf 26ff 46bc 31ec afbe 654d 8bbf
00000010: 625e 3bbe b355 babf d949 14be 5448 89bf
00000020: f075 26bf 1e17 80bf 5702 cdbe 5607 2dbf
00000030: 406c 8fbe 1b62 09c0 7d43 b8be fb85 a3bd
00000040: 8ba6 96bf f15b 86bf 9273 79be 93b2 87bf
00000050: 8cc0 babf 0a5a 9cbe 6b80 7ebf 082b 8dbf
00000060: 5035 61bf 80db b5bf 7907 e8bf a08d 9fbe
00000070: baef 02bf 659f a5bf 2ad7 78bf 0e07 b8be
00000080: cd5c b0bf 959c 41bf 06e3 513e 1424 f53e
00000090: a0eb 0abf 4240 b9bf 6b89 f6bf a002 e3be
000000a0: 4d86 48bf c890 54bf 9094 afbe d4ac 1cc0
000000b0: 5d71 b3bf b2e3 acbf 8308 92bf 5dd2 aebf
000000c0: 9df5 72bf 8153 203d a3fb 5cbf bc5c acbf
000000d0: c349 88bf bd18 9cbf ac6a 00be 54aa cf3d
000000e0: 2065 aebf 4a30 4dbd f92a dcbf 093a 68bf
000000f0: 162f 5dbf e9bf 2ebf 2be2 b0bf e0ab 64bf

10.running_mean f4 [64]
-48.079613 -30.572222 -24.84639 -25.42885 -10.749176 2.424205 -2.6695104 -39.996796
-4.926041 -12.401691 -11.857512 -15.578903 -10.460294 26.128809 -27.846083 -35.405853
-28.632307 -16.988806 -11.969688 -5.7818637 -5.9875417 -42.442524 -14.302012 -14.542966
-36.554775 -3.2078426 -24.989449 -41.683014 -16.001696 5.745215 -44.398777 3.2774036
-60.151535 -22.99207 43.85625 -22.985607 9.099896 -1.769679 -23.78164 -33.026062
-40.641304 -84.605515 -55.162075 7.494105 -54.659164 -4.3101993 -10.788373 -10.982068
14.207678 -32.793835 -17.0541 -31.805336 -24.577717 -15.72062 -13.358288 -17.14138
-25.591486 -0.03545727 -31.887337 6.7298603 -4.6989436 -14.535501 -20.59992 -9.435632
00000000: 8651 40c2 e993 f4c1 68c5 c6c1 496e cbc1
00000010: a0fc 2bc1 2d26 1b40 42d9 2ac0 b8fc 1fc2
00000020: 21a2 9dc0 546d 46c1 5fb8 3dc1 3043 79c1
00000030: 5d5d 27c1 cd07 d141 c7c4 dec1 989f 0dc2
00000040: f70e e5c1 13e9 87c1 d883 3fc1 0705 b9c0
00000050: f199 bfc0 25c5 29c2 0bd5 64c1 fdaf 68c1
00000060: 1738 12c2 4b4d 4dc0 64ea c7c1 68bb 26c2
00000070: 7903 80c1 cdd8 b740 5998 31c2 fbc0 5140
00000080: 2c9b 70c2 c2ef b7c1 cd6c 2f42 86e2 b7c1
00000090: 2d99 1141 d784 e2bf cc40 bec1 b01a 04c2
000000a0: b290 22c2 0636 a9c2 f7a5 5cc2 b5cf ef40
000000b0: fca2 5ac2 27ed 89c0 2d9d 2cc1 8db6 2fc1
000000c0: a652 6341 e32c 03c2 cc6e 88c1 5471 fec1
000000d0: 2a9f c4c1 a987 7bc1 8cbb 55c1 8c21 89c1
000000e0: 5dbb ccc1 a43b 11bd 4419 ffc1 045b d740
000000f0: bf5d 96c0 6991 68c1 a3cc a4c1 59f8 16c1

10.running_var f4 [64]
310.23935 374.4394 506.1997 568.1462 227.4804 781.85187 286.17468 792.36896
277.45828 379.84363 694.13776 324.87012 546.5569 307.2447 478.32507 304.23233
378.74472 546.21844 302.95538 223.63745 582.27997 869.2 473.3193 852.62354
386.8198 348.97372 297.32312 261.69174 294.02615 927.87604 438.10068 936.8586
656.84686 709.83875 540.4635 525.32446 523.8041 746.4571 306.06372 1542.952
730.49927 915.9487 1072.0537 255.11548 779.5527 692.6626 496.0398 698.6995
285.2018 1086.933 775.2432 170.5144 535.6258 527.382 338.16916 509.01675
192.40701 210.56241 180.16393 389.32947 503.82968 480.13263 712.68304 340.24286
00000000: a31e 9b43 3e38 bb43 9019 fd43 5b09 0e44
00000010: fb7a 6343 8576 4344 5c16 8f43 9d17 4644
00000020: a9ba 8a43 fceb bd43 d188 2d44 606f a243
00000030: a4a3 0844 529f 9943 9c29 ef43 bd1d 9843
00000040: 535f bd43 fb8d 0844 4a7a 9743 30a3 5f43
00000050: eb91 1144 cd4c 5944 dfa8 ec43 e827 5544
00000060: ef68 c143 a37c ae43 5ca9 9443 8bd8 8243
00000070: 5903 9343 11f8 6744 e30c db43 f336 6a44
00000080: 3336 2444 ae75 3144 aa1d 0744 c454 0344
00000090: 76f3 0244 419d 3a44 2808 9943 77de c044
000000a0: f49f 3644 b8fc 6444 b801 8644 901d 7f43
000000b0: 5fe3 4244 682a 2d44 1805 f843 c5ac 2e44
000000c0: d599 8e43 dbdd 8744 91cf 4144 b083 2a43
000000d0: 0de8 0544 73d8 0344 a715 a943 2582 fe43
000000e0: 3268 4043 fa8f 5243 f729 3443 2caa c243
000000f0: 33ea fb43 fa10 f043 b72b 3244 161f aa43

14.weight f4 [64]
1.7801801 2.337803 0.80724657 1.2580398 0.7244156 0.88875437 0.91254437 1.4794164
2.347603 0.9735421 0.99118155 2.7420304 1.1008967 1.1687216 0.8816821 1.2698703
1.3615103 1.6766243 1.3635424 0.8815684 1.7122114 0.8516257 1.0144817 1.0750092
1.7564038 1.5197357 1.1245011 0.9158387 1.2461205 1.4204007 2.0390701 1.522195
1.3539006 1.8055556 0.7621378 2.6452231 1.015139 1.1608527 1.3938926 0.9229434
1.5667082 1.4332519 1.3712801 1.3702788 1.0593996 1.1121858 1.9563487 1.4906257
1.0352019 1.5568857 1.4072332 0.91956455 0.9476693 0.7588672 1.4271802 0.91448295
1.0680088 1.317766 1.440487 0.6691519 2.0292258 0.8719952 1.9985484 1.1047311
00000000: f1dc e33f 909e 1540 b6a7 4e3f 7307 a13f
00000010: 4d73 393f 6885 633f 829c 693f 845d bd3f
00000020: 213f 1640 0e3a 793f 13be 7d3f 6d7d 2f40
00000030: 2fea 8c3f ab98 953f ebb5 613f 1c8b a23f
00000040: f845 ae3f a09b d63f 8f88 ae3f 77ae 613f
00000050: be29 db3f 2404 5a3f 89da 813f e799 893f
00000060: d7d1 e03f b386 c23f a7ef 8f3f 6874 6a3f
00000070: e080 9f3f b1cf b53f 2080 0240 49d7 c23f
00000080: 9d4c ad3f 721c e73f 761b 433f 564b 2940
00000090: 13f0 813f d296 943f 136b b23f 0546 6c3f
000000a0: e589 c83f cc74 b73f 1b86 af3f 4c65 af3f
000000b0: 689a 873f 1b5c 8e3f a269 fa3f d3cc be3f
000000c0: 7f81 843f 0848 c73f 3820 b43f 9568 6b3f
000000d0: 759a 723f 1f45 423f d7ad b63f 8e1b 6a3f
000000e0: 83b4 883f 8eac a83f e161 b83f 8a4d 2b3f
000000f0: d6de 0140 143b 5f3f 6fd0 ff3f d467 8d3f

14.bias f4 [64]
0.31464168 -1.1315057 -0.8535309 -0.6199102 0.6528746 -0.21747972 -0.14391138 -1.3110043
-2.391422 -0.3663361 -0.79045725 -3.2196338 -0.85762656 -0.5489264 1.8249353 -0.84664524
0.17178701 -1.4012609 -1.6693101 -0.006641164 -1.4361755 -0.14554194 1.1726246 -1.5731511
-1.5731138 -1.5830426 0.88945466 -0.20426446 -0.2742094 -0.6857725 -2.2643814 -1.231199
-0.15154181 0.387505 0.054692872 -0.86692977 -0.0201506 -1.1647973 -1.9253479 -0.49768654
-0.9188005 -0.9585703 -0.3819792 -0.75319475 0.6393449 0.56871396 -2.1685185 -2.0289655
-0.50571686 -0.46253705 -1.7478267 -0.64616174 0.76047736 -0.15448402 -0.6203949 -0.3359265
0.23877989 -1.4811839 -1.8097361 -0.3653749 -2.004785 0.1201004 -0.3291739 1.2035488
00000000: b718 a13e 2ed5 90bf 0081 5abf 6fb2 1ebf
00000010: ca22 273f 01b3 5ebe 815d 13be fdce a7bf
00000020: 0f0d 19c0 6890 bbbe 685b 4abf 7b0e 4ec0
00000030: 6a8d 5bbf 7186 0cbf 7b97 e93f bebd 58bf
00000040: efe8 2f3e 845c b3bf f4ab d5bf 1f9e d9bb
00000050: 99d4 b7bf f208 15be 9018 963f 045d c9bf
00000060: cb5b c9bf 24a1 cabf 4db3 633f b42a 51be
00000070: 2d65 8cbe c98e 2fbf a0eb 10c0 ee97 9dbf
00000080: c72d 1bbe 0e67 c63e a205 603d 1cef 5dbf
00000090: df12 a5bc 1418 95bf cd71 f6bf c5d0 febe
000000a0: 8236 6bbf dd64 75bf c792 c3be 5fd1 40bf
000000b0: 1bac 233f 3d97 113f 02c9 0ac0 92da 01c0
000000c0: a976 01bf a8d1 ecbe c9b8 dfbf db6a 25bf
000000d0: a5ae 423f 0f31 1ebe 33d2 1ebf 8ffe abbe
000000e0: b782 743e 6f97 bdbf 6fa5 e7bf 6b12 bbbe
000000f0: 664e 00c0 33f7 f53d 7b89 a8be e30d 9a3f

14.running_mean f4 [64]
-10.742828 -16.01706 -7.045209 -11.82087 14.419459 -15.344008 -16.958042 8.851152
6.9041634 3.1206043 -10.071238 9.103838 15.444478 2.552744 -8.643219 -1.0057619
-15.623874 -3.1426098 28.724806 -7.1898017 -3.5871465 -3.2809012 -4.956988 2.1207654
3.51969 1.4176074 -1.2094401 7.5419784 -3.3400722 5.7541842 -4.391327 1.8270411
-12.767283 10.838339 -9.122581 2.2256808 -22.469162 -7.130901 -7.8440595 -0.05386725
1.1813378 3.3572946 6.896448 2.7918878 -2.8262184 -11.839556 -5.43916 9.806173
-20.643265 -9.725698 -3.8850121 -4.8026543 10.276867 -1.3626539 28.694336 18.57934
-8.24213 0.65445495 -2.9781458 6.9854636 -14.506316 -5.8819695 -10.354548 1.4243307
00000000: a0e2 2bc1 f022 80c1 5a72 e1c0 4922 3dc1
00000010: 1bb6 6641 0f81 75c1 12aa 87c1 529e 0d41
00000020: e8ee dc40 fbb7 4740 ca23 21c1 52a9 1141
00000030: 951c 7741 2860 2340 a04a 0ac1 cebc 80bf
00000040: 63fb 79c1 8520 49c0 67cc e541 db12 e6c0
00000050: cf93 65c0 49fa 51c0 a59f 9ec0 9fba 0740
00000060: 9a42 6140 2974 b53f efce 9abf e357 f140
00000070: bec3 55c0 4722 b840 c085 8cc0 7cdc e93f
00000080: cb46 4cc1 d669 2d41 17f6 11c1 8e71 0e40
00000090: d8c0 b3c1 5730 e4c0 8902 fbc0 e8a3 5cbd
000000a0: 1436 973f eadd 5640 b4af dc40 4aae 3240
000000b0: c3e0 34c0 d26e 3dc1 990d aec0 16e6 1c41
000000c0: 6825 a5c1 769c 1bc1 0aa4 78c0 58af 99c0
000000d0: 0c6e 2441 716b aebf 008e e541 7da2 9441
000000e0: c4df 03c1 5c8a 273f f199 3ec0 eb88 df40
000000f0: df19 68c1 1839 bcc0 3bac 25c1 7850 b63f

14.running_var f4 [64]
208.06978 196.64467 109.521706 208.17538 205.28275 246.01433 250.11298 221.76198
128.8178 142.89958 162.83795 110.98852 114.69643 147.93399 219.62495 90.599205
186.69193 207.3833 131.1134 266.26984 205.48999 105.66004 260.7637 67.711205
177.71654 149.55821 400.5193 92.652824 312.94946 388.22946 85.24414 145.95374
419.47836 197.05042 235.96758 170.65697 269.31204 212.26082 89.33456 100.96139
347.3313 194.79936 123.01193 106.73976 295.90714 368.52087 107.04343 95.46975
229.41449 380.1502 91.340385 100.94843 214.33034 146.14864 285.04666 251.42253
395.7336 133.19267 95.64333 96.35363 133.358 119.2729 143.35646 463.6049
00000000: dd11 5043 09a5 4443 1d0b db42 e62c 5043
00000010: 6248 4d43 ab03 7643 ec1c 7a43 11c3 5d43
00000020: 5bd1 0043 4be6 0e43 84d6 2243 1ffa dd42
00000030: 9264 e542 1aef 1343 fd9f 5b43 cb32 b542
00000040: 22b1 3a43 2062 4f43 081d 0343 8a22 8543
00000050: 707d 4d43 f151 d342 c161 8243 236c 8742
00000060: 6fb7 3143 e78e 1543 7842 c843 3f4e b942
00000070: 8879 9c43 5f1d c243 007d aa42 28f4 1143
00000080: 3bbd d143 e80c 4543 b3f7 6b43 2fa8 2a43
00000090: f1a7 8643 c542 5443 4bab b242 3bec c942
000000a0: 68aa ad43 a3cc 4243 1c06 f642 c27a d542
000000b0: 1df4 9343 ac42 b843 3c16 d642 83f0 be42
000000c0: 1c6a 6543 3a13 be43 47ae b642 99e5 c942
000000d0: 9154 5643 0d26 1243 f985 8e43 2b6c 7b43
000000e0: e7dd c543 5331 0543 6349 bf42 0fb5 c042
000000f0: a65b 0543 ba8b ee42 415b 0f43 6dcd e743

18.weight f4 [64]
0.994801 1.0657653 1.2674158 0.9670291 2.4183574 1.1472201 1.3460778 3.8209698
0.85936904 1.2334919 1.4775969 1.4827851 1.0265517 1.1245751 1.6872923 1.1281508
1.5360564 0.9644267 0.9671328 0.95913416 1.1354651 1.1130123 0.75693876 1.2714267
1.4148724 1.094341 1.419078 1.4168739 1.5665181 1.226891 1.0658338 1.3241036
0.87343884 0.88967687 1.2434729 2.04524 1.5434881 0.5981398 0.9486973 0.8863259
2.5293229 1.0468776 1.0410355 1.2492659 0.9894657 2.1291025 2.3570006 1.0679324
1.2557721 1.1768391 0.8718641 1.2424506 1.0082681 1.906869 1.1227599 0.9112275
1.6510159 0.9081926 1.2103249 1.4727546 1.1262326 1.0189782 1.265011 2.3226712
00000000: 47ab 7e3f ff6a 883f ae3a a23f 388f 773f
00000010: 5ec6 1a40 1cd8 923f 474c ac3f c58a 7440
00000020: 9cff 5b3f 10e3 9d3f e521 bd3f e7cb bd3f
00000030: 0c66 833f 14f2 8f3f 32f9 d73f 3f67 903f
00000040: 7f9d c43f abe4 763f 0496 773f d189 753f
00000050: ec56 913f 3077 8e3f bdc6 413f 1cbe a23f
00000060: 8a1a b53f 5e13 8c3f 59a4 b53f 205c b53f
00000070: aa83 c83f c40a 9d3f 3e6d 883f 3a7c a93f
00000080: b099 5f3f ddc1 633f 1f2a 9f3f 36e5 0240
00000090: 0591 c53f b11f 193f d4dd 723f 41e6 623f
000000a0: 6de0 2140 1600 863f a740 853f f2e7 9f3f
000000b0: a04d 7d3f 3743 0840 19d9 1640 02b2 883f
000000c0: 24bd a03f aaa2 963f 7c32 5f3f 9f08 9f3f
000000d0: ee0e 813f 4914 f43f 99b6 8f3f 3546 693f
000000e0: 7d54 d33f 4f7f 683f edeb 9a3f 3983 bc3f
000000f0: 6428 903f e16d 823f e1eb a13f a5a6 1440

18.bias f4 [64]
-0.039330717 -1.1759713 -1.3017344 0.20583285 -1.2233391 -0.19861029 -0.09703172 -1.0567818
-0.16896696 -1.9403013 -1.0920639 -1.1519513 -0.6189079 0.061008237 1.8842115 0.5666311
-0.1379639 -1.0088241 -1.2609215 -0.47868454 1.1580253 -0.16389516 0.09556889 -2.0378315
-0.98443466 -0.9706278 -2.019307 -0.6023349 -1.6652805 -0.23804805 -0.72363716 -2.645192
0.40988162 -0.33024606 -2.4981122 -2.517756 -0.44622543 0.08025837 -0.7087619 0.023136266
-1.2819463 -0.36692584 -0.90199584 -0.7133926 -0.1216896 -1.7302142 -1.0686982 -1.0022717
-1.0385749 -0.48175925 1.9346541 -0.19480744 -0.3457104 -1.4047283 1.2222211 -0.5688797
-2.2230268 -0.7704467 -0.6997247 -0.31559828 -0.67700833 0.089686595 -0.2072737 -1.8828068
00000000: 3f19 21bd 3a86 96bf 3c9f a6bf d9c5 523e
00000010: 6096 9cbf 7f60 4bbe 91b8 c6bd a044 87bf
00000020: ad05 2dbe cb5b f8bf c0c8 8bbf 2473 93bf
00000030: c070 1ebf c6e3 793d d82d f13f bc0e 113f
00000040: 6946 0dbe 2621 81bf e065 a1bf 2416 f5be
00000050: 2c3a 943f 22d4 27be 9fb9 c33d d56b 02c0
00000060: e903 7cbf 107b 78bf 533c 01c0 9f32 1abf
00000070: e927 d5bf dec2 73be 4940 39bf d34a 29c0
00000080: 01dc d13e 0316 a9be 12e1 1fc0 ea22 21c0
00000090: a977 e4be 805e a43d 6b71 35bf 4488 bd3c
000000a0: d116 a4bf b4dd bbbe 33e9 66bf e6a0 36bf
000000b0: 6638 f9bd a977 ddbf 1acb 88bf 704a 80bf
000000c0: 06f0 84bf 26a9 f6be bfa2 f73f 9a7b 47be
000000d0: f400 b1be 23ce b3bf be71 9c3f 1aa2 11bf
000000e0: 1246 0ec0 ff3b 45bf 2821 33bf 1996 a1be
000000f0: 6b50 2dbf 9bad b73d 8f3f 54be d0ff f0bf

18.running_mean f4 [64]
-4.6365647 -14.230135 -4.4367557 6.756192 5.9863067 -14.0014515 1.7198218 12.774478
-9.314278 13.009999 -6.191108 -9.553194 -49.71191 -34.588955 -8.750116 -25.696264
-31.505135 11.205495 2.2632554 -18.994156 -5.415954 -3.0601473 -12.185703 -13.585935
-8.744846 4.2129536 -1.5056345 -25.247814 -7.697921 -14.172459 -11.686304 -9.630454
-4.1602054 -8.171117 -1.6377916 -35.667038 -7.8579965 28.268337 13.791191 -36.80412
-15.308716 -52.24632 1.1252682 -9.941324 -2.579881 -26.576632 -20.838522 11.341815
3.9822035 -19.662132 16.586294 -8.868123 26.015093 -18.070446 5.7515063 -8.578364
-6.222656 12.956959 -25.518827 -40.305626 -3.9230044 -22.148281 -18.735516 -14.058408
00000000: bd5e 94c0 a2ae 63c1 e7f9 8dc0 ba32 d840
00000010: d38f bf40 f205 60c1 1f23 dc3f 4364 4c41
00000020: 4807 15c1 f528 5041 8f1d c6c0 e2d9 18c1
00000030: ffd8 46c2 175b 0ac2 7a00 0cc1 f391 cdc1
00000040: 840a fcc1 b549 3341 2dd9 1040 08f4 97c1
00000050: 7f4f adc0 74d9 43c0 a4f8 42c1 fd5f 59c1
00000060: e4ea 0bc1 84d0 8640 a2b8 c0bf 86fb c9c1
00000070: 5e55 f6c0 64c2 62c1 1afb 3ac1 5716 1ac1
00000080: 6720 85c0 e5bc 02c1 28a3 d1bf 0cab 0ec2
00000090: b574 fbc0 8e25 e241 b8a8 5c41 6b37 13c2
000000a0: 80f0 74c1 3bfc 50c2 ca08 903f aa0f 1fc1
000000b0: c51c 25c0 f19c d4c1 4bb5 a6c1 1378 3541
000000c0: 6cdc 7e40 0c4c 9dc1 bbb0 8441 d5e3 0dc1
000000d0: e91e d041 4690 90c1 570c b840 fb40 09c1
000000e0: ff1f c7c0 b44f 4f41 8f26 ccc1 f638 21c2
000000f0: 8112 7bc0 ae2f b1c1 56e2 95c1 3def 60c1

18.running_var f4 [64]
279.89682 103.63778 91.66385 199.57503 346.39996 355.69217 474.1089 737.1258
286.4535 140.63605 175.17325 232.38754 286.40906 488.72946 418.40082 675.30896
559.072 116.173416 149.26259 220.71504 280.29514 185.89589 150.71828 113.32841
248.31955 72.77917 119.201164 363.56696 131.01353 316.776 196.42923 97.77517
346.12744 225.12254 84.44523 365.35455 162.13281 269.5286 138.72955 187.08394
489.7841 389.8398 167.95905 136.28204 98.574585 1056.4962 492.4538 116.85259
101.38004 380.57697 360.9531 213.89638 230.59099 429.6972 316.55927 203.08035
95.17204 107.08395 427.47488 594.5904 169.07896 381.7041 190.70578 451.96735
00000000: cbf2 8b43 8b46 cf42 e453 b742 3593 4743
00000010: 3233 ad43 99d8 b143 f00d ed43 0d48 3844
00000020: 0c3a 8f43 d4a2 0c43 5a2c 2f43 3663 6843
00000030: 5c34 8f43 5f5d f443 4e33 d143 c6d3 2844
00000040: 9cc4 0b44 ca58 e842 3943 1543 0db7 5c43
00000050: c725 8c43 59e5 3943 e1b7 1643 25a8 e242
00000060: ce51 7843 ef8e 9142 ff66 ee42 92c8 b543
00000070: 7703 0343 5463 9e43 e26d 4443 e38c c342
00000080: 5010 ad43 5f1f 6143 f5e3 a842 62ad b643
00000090: 0022 2243 a9c3 8643 c4ba 0a43 7d15 3b43
000000a0: 5de4 f443 7feb c243 84f5 2743 3448 0843
000000b0: 3026 c542 e10f 8444 163a f643 87b4 e942
000000c0: 95c2 ca42 da49 be43 ff79 b443 79e5 5543
000000d0: 4b97 6643 3ed9 d643 9647 9e43 9214 4b43
000000e0: 1658 be42 fb2a d642 c9bc d543 c9a5 1444
000000f0: 3714 2943 20da be43 aeb4 3e43 d2fb e143

22.weight f4 [64]
1.8331039 2.0714474 2.1105576 0.9527842 1.1954517 1.4795346 2.0616865 1.17896
1.6548058 2.157254 1.1574564 1.1258724 0.79573286 1.4875754 1.8894476 1.1659561
1.2648156 1.4774587 1.1276475 1.1210355 2.1985948 2.199541 0.8960004 0.9719916
1.2675955 1.0572989 1.3716005 1.1329749 1.4023476 1.5983016 1.7047505 1.1541896
2.392615 1.3314366 0.9047371 0.8419896 1.4937843 1.2536321 1.5504564 1.5640907
0.7784264 1.322135 0.9385638 1.6595871 1.2239947 1.4518678 1.6509118 1.1639512
1.2002228 1.2465599 0.75453514 1.40387 1.4790971 1.663041 0.8499336 2.8441513
0.8226471 1.0986986 1.6372037 0.7626357 1.3846405 0.7397539 1.3482109 1.1614833
00000000: 26a3 ea3f 9892 0440 6013 0740 aae9 733f
00000010: 9004 993f 6461 bd3f acf2 0340 29e8 963f
00000020: add0 d33f 7310 0a40 8827 943f 961c 903f
00000030: 26b5 4b3f df68 be3f 6bd9 f13f 0d3e 953f
00000040: 7ae5 a13f 5e1d bd3f c156 903f 177e 8f3f
00000050: c7b5 0c40 48c5 0c40 4860 653f 71d4 783f
00000060: 9240 a23f 9255 873f 9b90 af3f 5205 913f
00000070: 2080 b33f 2695 cc3f 4435 da3f 7cbc 933f
00000080: 9b20 1940 846c aa3f da9c 673f a18c 573f
00000090: 5334 bf3f 0477 a03f 5b75 c63f 2034 c83f
000000a0: f446 473f b83b a93f b845 703f 5a6d d43f
000000b0: dcab 9c3f ced6 b93f 1451 d33f 5afc 943f
000000c0: e7a0 993f 468f 9f3f 3729 413f 03b2 b33f
000000d0: 0e53 bd3f 87de d43f 4095 593f 9306 3640
000000e0: 0099 523f 28a2 8c3f e48f d13f 183c 433f
000000f0: e63b b13f 8360 3d3f 2d92 ac3f 7cab 943f

22.bias f4 [64]
-0.75984013 -1.9082559 -0.57479006 -0.25238305 -0.23446666 -2.3972802 -1.1232644 -1.2039301
-1.8249104 -0.5349204 1.1071205 1.5505317 0.39975306 -0.5611249 -1.0694171 -0.3318445
-0.9550676 0.7601193 0.6498955 0.97536486 -2.7745793 -2.3053992 0.17051122 0.037966885
0.17696227 -0.43587404 0.26416692 1.0451026 -0.8081258 -0.76973015 -0.59236026 -0.0332229
-2.3105495 -1.0204833 -0.89737755 0.122566506 -0.32301688 -0.30016962 -0.16796981 0.62550676
0.2942998 -0.2541089 0.6123179 0.109072566 -0.7186901 -0.23459595 -0.54802567 -1.004359
-0.36613268 -0.6140869 0.07429459 0.8336139 -0.95616376 -0.5211826 0.53802615 -1.6417199
-0.2206817 0.30063736 -2.4864993 0.2727156 0.2906795 0.91597396 0.6935724 -1.1818739
00000000: e284 42bf bb41 f4bf 7125 13bf 5a38 81be
00000010: 0718 70be 0a6d 19c0 21c7 8fbf 621a 9abf
00000020: aa96 e9bf 8bf0 08bf 20b6 8d3f d377 c63f
00000030: 6fac cc3e e2a5 0fbf a9e2 88bf 86e7 a9be
00000040: 4f7f 74bf 2e97 423f 8d5f 263f 83b1 793f
00000050: b592 31c0 a98b 13c0 7e9a 2e3e 2a83 1b3d
00000060: 9935 353e e22a dfbe e340 873e ecc5 853f
00000070: 55e1 4ebf 090d 45bf eca4 17bf bc14 08bd
00000080: 0be0 13c0 329f 82bf 89ba 65bf 2604 fb3d
00000090: 7862 a5be d5af 99be 4700 2cbe 3621 203f
000000a0: 77ae 963e 901a 82be dec0 1c3f 7061 df3d
000000b0: 13fc 37bf ec39 70be 694b 0cbf d68e 80bf
000000c0: be75 bbbe cd34 1dbf c327 983d b867 553f
000000d0: 26c7 74bf 396c 05bf 15bc 093f e123 d2bf
000000e0: 62fa 61be 24ed 993e ce22 1fc0 61a1 8b3e
000000f0: f2d3 943e 457d 6a3f f68d 313f a547 97bf

22.running_mean f4 [64]
-10.249974 -1.0340503 -40.398384 -4.4615183 5.1113276 -3.3291388 28.755547 -10.841906
13.957095 -25.105152 -9.731614 4.54423 3.2015903 -1.6974292 -13.348712 -22.348429
-17.00849 2.3452141 -17.84988 1.997123 11.929393 2.297569 -26.75561 -3.2346737
8.559815 8.120498 -30.297989 -8.29644 -23.904133 -8.6227455 -49.332355 -36.693302
-1.0639502 -1.3265578 0.8281103 -5.774617 -21.964727 -30.569265 -15.732125 -28.277775
-19.854866 19.358444 -17.98941 -25.514328 -10.533188 -3.7927046 -17.100782 -3.3633082
-5.6192894 -31.833797 4.2854605 -24.67103 -7.155536 -31.396513 0.65364754 -21.96987
-2.8036532 -32.36402 16.511288 3.2677119 -3.615511 -8.915431 -3.0308175 -15.616922
00000000: e5ff 23c1 c35b 84bf f297 21c2 c2c4 8ec0
00000010: ff8f a340 9c10 55c0 5c0b e641 7278 2dc1
00000020: 4350 5f41 5ad7 c8c1 b1b4 1bc1 556a 9140
00000030: dbe6 4c40 5c45 d9bf 5394 55c1 95c9 b2c1
00000040: 6311 88c1 fd17 1640 8ecc 8ec1 baa1 ff3f
00000050: cbde 3e41 5f0b 1340 7d0b d6c1 e504 4fc0
00000060: 01f5 0841 8fed 0141 4862 f2c1 38be 04c1
00000070: aa3b bfc1 c4f6 09c1 5554 45c2 f1c5 12c2
00000080: 852f 88bf a5cc a9bf 09ff 533f aac9 b8c0
00000090: c3b7 afc1 db8d f4c1 c9b6 7bc1 e238 e2c1
000000a0: c4d6 9ec1 18de 9a41 50ea 8fc1 581d ccc1
000000b0: f087 28c1 acbb 72c0 67ce 88c1 7140 57c0
000000c0: 38d1 b3c0 9eab fec1 7e22 8940 455e c5c1
000000d0: 27fa e4c0 0f2c fbc1 7255 273f 4bc2 afc1
000000e0: 0e6f 33c0 c274 01c2 1e17 8441 3122 5140
000000f0: 8864 67c0 9ba5 0ec1 eaf8 41c0 eade 79c1

22.running_var f4 [64]
488.4959 73.23335 1190.2941 236.33347 126.22787 44.944355 451.30215 75.2883
118.86779 426.92935 176.88719 385.85168 129.60506 260.03525 286.79413 101.91911
124.69969 544.5035 739.9522 403.95813 287.5372 118.35133 345.54346 96.3676
685.3735 115.7365 411.4955 301.46213 262.84457 140.69136 470.63458 313.304
107.23206 97.94335 78.83338 186.48874 710.2043 236.50659 421.1536 886.9263
282.8944 161.99474 411.15118 722.9441 336.34793 342.1136 386.2341 116.57133
253.1837 147.14085 104.66367 644.32477 109.37052 401.19537 81.193436 452.20706
145.25558 164.28891 215.00476 186.1789 298.0869 149.41077 368.80035 65.16666
00000000: 7a3f f443 7a77 9242 69c9 9444 5e55 6c43
00000010: ab74 fc42 05c7 3342 ada6 e143 9c93 9642
00000020: 4fbc ed42 f576 d543 1fe3 3043 04ed c043
00000030: e59a 0143 8304 8243 a665 8f43 96d6 cb42
00000040: 3e66 f942 3920 0844 f1fc 3844 a4fa c943
00000050: c3c4 8f43 e2b3 ec42 90c5 ac43 36bc c042
00000060: e757 2b44 1779 e742 6dbf cd43 27bb 9643
00000070: 1b6c 8343 fdb0 0c43 3a51 eb43 e9a6 9c43
00000080: d176 d642 ffe2 c342 b1aa 9d42 1e7d 3a43
00000090: 138d 3144 b081 6c43 a993 d243 48bb 5d44
000000a0: 7c72 8d43 a7fe 2143 5a93 cd43 6cbc 3444
000000b0: 892c a843 8a0e ab43 f71d c143 8524 e942
000000c0: 072f 7d43 0f24 1343 cd53 d142 c914 2144
000000d0: b5bd da42 0299 c843 0a63 a242 811a e243
000000e0: 6e41 1143 f649 2443 3801 5743 cc2d 3a43
000000f0: 200b 9543 2869 1543 7266 b843 5455 8242

26.weight f4 [64]
2.035 1.6602837 1.7417675 1.6125807 1.7852756 1.6842242 1.367603 1.267464
1.3553984 1.0233727 1.5489186 0.83366966 1.4457206 1.8479556 1.2351373 1.8097473
1.0943453 1.1821649 1.1343018 1.2299451 1.3245982 1.2491854 1.4295261 1.1989921
1.2226176 2.880253 1.0838892 1.7158403 1.4688973 1.1653278 1.6285355 1.2302154
1.6724749 2.0258107 1.3121551 1.3261509 1.5854475 1.055863 1.4817845 1.0740927
1.3780465 1.1531287 1.3263062 1.2739662 1.267648 1.213657 1.368117 1.4552052
1.1778444 1.4700919 1.4054192 1.5377792 1.2790065 1.5386513 1.2796575 1.0922573
1.4068936 2.9961653 1.6414902 1.2642556 0.9398215 1.3043164 1.4404011 1.1761823
00000000: 713d 0240 2d84 d43f 3df2 de3f 0b69 ce3f
00000010: e983 e43f a994 d73f 9d0d af3f 433c a23f
00000020: b27d ad3f e0fd 823f f742 c63f 606b 553f
00000030: 5f0d b93f cf89 ec3f fb18 9e3f cda5 e73f
00000040: 8213 8c3f 2e51 973f cd30 913f d76e 9d3f
00000050: 6f8c a93f 4fe5 9f3f b6fa b63f 9378 993f
00000060: bc7e 9c3f 1156 3840 e2bc 8a3f a8a0 db3f
00000070: d404 bc3f 7629 953f da73 d03f b377 9d3f
00000080: a813 d63f e2a6 0140 b3f4 a73f 50bf a93f
00000090: f2ef ca3f 8526 873f 1dab bd3f df7b 893f
000000a0: d463 b03f b999 933f 67c4 a93f 5311 a33f
000000b0: 4a42 a23f 1d59 9b3f 751e af3f 2a44 ba3f
000000c0: 9bc3 963f f92b bc3f c7e4 b33f f3d5 c43f
000000d0: 7cb6 a33f 87f2 c43f d1cb a33f 16cf 8b3f
000000e0: 1715 b43f 2cc1 3f40 5a1c d23f 21d3 a13f
000000f0: 2498 703f d7f3 a63f 105f b83f 248d 963f

26.bias f4 [64]
-0.79558074 -0.7865545 0.059064217 0.6073281 -1.4631228 -0.8832216 -2.74855 -0.5762274
-0.7235912 -0.83782184 -0.659974 -0.071640484 -1.1738259 -1.2785412 0.42855254 0.7904787
0.42481065 -0.48073876 0.11029809 0.34767863 2.9474676 0.6994274 -1.3117684 1.0081078
-0.088545546 -2.3866024 0.4965672 -0.8133527 -0.50489706 -1.3697181 -0.98244077 -0.9011345
-0.063760914 -0.7390997 0.28118104 0.4271174 -1.5801352 0.56606096 -0.71669304 -0.543914
-1.4422505 0.5961692 -2.401569 1.2359865 -0.97693515 -0.5459084 -0.7939159 -0.060117934
-0.37047178 0.08619856 0.24730338 -0.55510414 1.046627 0.017780414 0.12672463 0.38265622
-0.0117592625 -1.4708718 -0.37507302 0.08189088 -0.08824696 0.10874096 -0.26400045 -0.42537245
00000000: 2eab 4bbf a35b 49bf 52ed 713d db79 1b3f
00000010: 9c47 bbbf d01a 62bf 3ee8 2fc0 a483 13bf
00000020: 463d 39bf 7e7b 56bf 0ef4 28bf 3fb8 92bd
00000030: ed3f 96bf 3da7 a3bf 3d6b db3e d05c 4a3f
00000040: c880 d93e 6423 f6be f7e3 e13d ef02 b23e
00000050: 4fa3 3c40 ad0d 333f 07e8 a7bf ad09 813f
00000060: 5e57 b5bd 18be 18c0 0e3e fe3e e237 50bf
00000070: ef40 01bf ec52 afbf 3d81 7bbf c0b0 66bf
00000080: 1595 82bd a335 3dbf f6f6 8f3e 22af da3e
00000090: df41 cabf 5fe9 103f 3279 37bf f33d 0bbf
000000a0: aa9b b8bf 8b9e 183f 4eb3 19c0 ce34 9e3f
000000b0: 6c18 7abf a7c0 0bbf 133e 4bbf 393e 76bd
000000c0: 7aae bdbe df88 b03d 193d 7d3e 4e1b 0ebf
000000d0: e0f7 853f 3ba8 913c 1ac4 013e 84eb c33e
000000e0: eca9 40bc 8745 bcbf 9209 c0be 68b6 a73d
000000f0: d2ba b4bd 95b3 de3d 112b 87be 6bca d9be

26.running_mean f4 [64]
8.476033 -19.507658 -4.9567776 -5.2583795 5.779397 -10.780848 -8.612379 -3.2503664
-34.529064 -0.5105896 -17.854687 8.802312 -3.4337 -3.8078415 17.741776 -29.361105
-26.981749 10.540206 -20.985811 17.072517 8.165518 -16.894657 -0.08962659 -18.720127
8.91281 -8.511904 -29.67031 1.5411843 -10.878248 2.5199308 -22.083044 -2.5999284
-20.574709 -14.522152 -9.950217 11.569523 -4.049737 -18.069643 -22.334263 -55.383427
-27.569244 18.531263 8.360132 -15.0243225 8.544574 -37.242123 -44.559216 -29.179031
47.514442 -31.90721 2.627322 -34.26082 -28.066181 19.703049 -5.730985 -18.423758
-18.662922 -4.2837386 -0.8716951 20.396603 14.479485 -10.115767 -13.964356 -6.7355213
00000000: d59d 0741 af0f 9cc1 ec9d 9ec0 a544 a8c0
00000010: d2f0 b840 5a7e 2cc1 4ecc 09c1 0106 50c0
00000020: c31d 0ac2 00b6 02bf 66d6 8ec1 45d6 0c41
00000030: bec1 5bc0 adb3 73c0 28ef 8d41 8be3 eac1
00000040: 9fda d7c1 afa4 2841 f1e2 a7c1 8494 8841
00000050: f6a5 0241 4228 87c1 258e b7bd d2c2 95c1
00000060: df9a 0e41 c230 08c1 cb5c edc1 8745 c53f
00000070: 4e0d 2ec1 8c46 2140 13aa b0c1 3a65 26c0
00000080: 0199 a4c1 bc5a 68c1 1734 1fc1 c41c 3941
00000090: 7297 81c0 a18e 90c1 92ac b2c1 a188 5dc2
000000a0: d08d dcc1 0740 9441 1ac3 0541 a063 70c1
000000b0: 93b6 0841 eff7 14c2 a33c 32c2 a86e e9c1
000000c0: ca0e 3e42 f741 ffc1 0b26 2840 140b 09c2
000000d0: 8a87 e0c1 d89f 9d41 3b64 b7c0 db63 93c1
000000e0: aa4d 95c1 6314 89c0 6927 5fbf 3e2c a341
000000f0: f8ab 6741 2eda 21c1 016e 5fc1 6489 d7c0

26.running_var f4 [64]
949.2757 372.84717 761.9733 1030.4391 154.20514 645.7328 118.398705 215.499
643.32117 220.87128 413.00592 188.9874 165.0056 227.78711 255.19579 1281.9752
316.85883 369.4589 366.885 362.83057 191.13435 316.6927 80.23888 379.18475
278.52878 92.68732 390.7394 587.9999 707.3132 154.42874 534.2907 244.54703
491.20584 223.4659 380.83102 584.1515 97.907295 433.49997 311.9541 263.40424
162.35052 893.70905 222.00726 214.02544 524.3292 178.96297 522.4103 410.79358
525.88007 430.25958 304.29575 548.15985 283.94574 978.0502 606.3513 404.09665
675.9117 184.42494 466.45923 327.75864 366.65332 246.19803 389.85413 196.48546
00000000: a551 6d44 706c ba43 4b7e 3e44 0dce 8044
00000010: 8434 1a43 e66e 2144 23cc ec42 be7f 5743
00000020: 8ed4 2044 0cdf 5c43 c280 ce43 c6fc 3c43
00000030: 6f01 2543 80c9 6343 1f32 7f43 353f a044
00000040: ee6d 9e43 bdba b843 4871 b743 506a b543
00000050: 6522 3f43 aa58 9e43 4e7a a042 a697 bd43
00000060: af43 8b43 e85f b942 a55e c343 feff 1244
00000070: 0bd4 3044 c26d 1a43 9b92 0544 0a8c 7443
00000080: 599a f543 4577 5f43 5f6a be43 b209 1244
00000090: 89d0 c342 ffbf d843 20fa 9b43 beb3 8343
000000a0: bc59 2243 616d 5f44 dc01 5e43 8306 5643
000000b0: 1215 0344 85f6 3243 429a 0244 9465 cd43
000000c0: 5378 0344 3a21 d743 db25 9843 3b0a 0944
000000d0: 0ef9 8d43 3683 7444 7c96 1744 5f0c ca43
000000e0: 59fa 2844 c96c 3843 c83a e943 1be1 a343
000000f0: a053 b743 b232 7643 54ed c243 477c 4443

31.weight f4 [128]
0.99247515 1.4105217 1.7439475 1.5903962 1.4905504 1.7982866 1.0022784 1.211583
1.1313423 1.6677822 2.044686 1.6914202 1.2978245 1.8658031 1.2521093 1.2158488
1.028175 1.175821 1.6754125 1.3684074 1.3192713 1.8559066 1.5388247 1.2372018
2.3770688 2.0699103 1.5030917 1.4722664 1.3540916 1.3995308 1.6750398 1.7563993
1.4937662 1.6820289 1.64023 1.4692812 1.3252653 1.1425313 1.4639738 1.0823756
1.3050399 1.3436046 1.0808783 2.3547533 1.5247308 1.2150421 2.4244351 2.380963
1.4646379 1.5661926 1.5163809 1.6713586 1.2671213 1.5485233 1.2498431 1.4867476
1.5864819 1.680852 1.0725592 1.9703776 1.3879849 2.0514624 0.9105434 0.6301497
1.6701533 0.20550084 1.6240094 1.319265 1.4823365 1.8917258 1.4081259 1.7075496
1.3518772 1.6459225 1.3554289 1.435468 1.5999764 1.3324776 1.2566124 1.4756011
1.1493617 1.5383137 1.7318243 1.8452477 1.0478299 1.5155246 1.4442663 1.5711879
1.2616832 0.38564092 1.6334847 1.4093688 1.1202575 1.5175136 1.8883072 1.2118645
1.2116748 1.6417544 1.6129916 0.6169137 1.290906 1.1886947 0.9652326 1.3920053
1.1067066 1.3949504 1.5041419 1.7210902 1.8549314 1.0225893 1.6535968 1.7901782
1.3735687 1.7527074 1.2634988 1.1636664 1.2637801 0.82396036 1.0973201 1.1475146
1.6003939 1.8493347 2.0193489 1.9746878 1.750031 1.2899332 1.2759526 1.3441023
00000000: da12 7e3f fa8b b43f ac39 df3f 1a92 cb3f
00000010: 5bca be3f 412e e63f a94a 803f 2715 9b3f
00000020: d3cf 903f e379 d53f 23dc 0240 7580 d83f
00000030: 1d1f a63f a3d2 ee3f 1e45 a03f efa0 9b3f
00000040: 3d9b 833f 4d81 963f eb73 d63f f927 af3f
00000050: e2dd a83f 598e ed3f 35f8 c43f a15c 9e3f
00000060: e521 1840 6979 0440 4f65 c03f 3a73 bc3f
00000070: e052 ad3f d323 b33f b467 d63f b1d1 e03f
00000080: bb33 bf3f b94c d73f 0ef3 d13f 6811 bc3f
00000090: 4ba2 a93f 773e 923f 7e63 bb3f 498b 8a3f
000000a0: 8c0b a73f 3cfb ab3f 385a 8a3f 47b4 1640
000000b0: 612a c33f 8086 9b3f f229 1b40 b361 1840
000000c0: 4179 bb3f 0079 c83f c518 c23f 14ef d53f
000000d0: 0831 a23f 0336 c63f dcfa 9f3f bf4d be3f
000000e0: d711 cb3f 2926 d73f 9f49 893f 5535 fc3f
000000f0: 7da9 b13f 294b 0340 5f19 693f 7e51 213f
00000100: 95c7 d53f d06e 523e 8adf cf3f addd a83f
00000110: 34bd bd3f 1224 f23f 783d b43f fc90 da3f
00000120: 500a ad3f 97ad d23f b27e ad3f 6abd b73f
00000130: 07cc cc3f a08e aa3f add8 a03f 7fe0 bc3f
00000140: 491e 933f 77e7 c43f 6bac dd3f 1431 ec3f
00000150: 4a1f 863f b6fc c13f b8dd b83f af1c c93f
00000160: d67e a13f ba72 c53e 0716 d13f 3266 b43f
00000170: 9964 8f3f e33d c23f 0db4 f13f 601e 9b3f
00000180: 2918 9b3f 0225 d23f 8276 ce3f 0eee 1d3f
00000190: 683c a53f 2627 983f 7c19 773f 3b2d b23f
000001a0: 90a8 8d3f bc8d b23f b987 c03f af4c dc3f
000001b0: 646e ed3f 35e4 823f 0fa9 d33f 8f24 e53f
000001c0: 19d1 af3f b758 e03f 54ba a13f 05f3 943f
000001d0: 8cc3 a13f 11ef 523f fc74 8c3f c2e1 923f
000001e0: b5d9 cc3f 00b7 ec3f 033d 0140 92c2 fc3f
000001f0: 0401 e03f 881c a53f 6a52 a33f 8b0b ac3f

31.bias f4 [128]
-0.4012216 0.020791858 -0.13520528 -1.8403226 -0.8981358 -1.1922089 -0.44633082 -1.3273134
-0.46666244 -1.0566505 -1.128352 -1.5440112 -0.17570202 -0.8515726 -1.4943265 -0.77368546
-1.3690891 -0.53606546 -1.1502622 -0.52267516 -0.38571054 -1.1943654 -0.39525408 -0.033308435
-0.6616505 -0.6579694 -0.06670077 -1.0708253 -0.5918988 -0.4119483 -0.62266046 -1.124868
-0.5701838 -0.6042426 -1.2687134 -0.7801587 -1.2233654 -0.561221 -0.9949576 -0.96754926
-0.7488765 -0.85000855 -0.35168767 -1.3864555 -1.215436 -2.2196007 -0.57308954 -0.9072779
-0.54224324 -1.6772218 -0.8131558 -0.9419285 -0.6844126 -0.89849335 -0.60616535 -1.4303678
-0.9457239 -0.47374645 -1.1832224 -1.6654459 -0.015428503 -1.1622952 -0.3740083 -0.8562169
-1.2616026 -0.6886199 -0.6425157 -1.0617603 -1.6960535 -1.1949058 -1.0442387 -0.8843142
-1.2271363 -1.1113416 -1.5712786 -0.93758345 -0.39969632 -1.0365773 -0.9026763 -0.7173527
-0.45013645 -1.0482719 -0.7630356 -1.3422582 -1.0653144 -1.647342 -0.5439844 -0.9557716
-0.21028996 0.038743522 -0.85796094 -1.0490614 -1.1089187 -0.87994385 -1.2256504 -0.9649757
-0.45603448 -2.4108496 -1.1484929 -0.35205543 -1.2767764 0.15265886 -0.14659281 -0.9329185
-1.4030794 -0.69535595 -0.44755977 -1.0758896 0.11490326 -0.50197375 -1.036787 -1.0863655
-1.3439394 -1.5973346 -0.07196426 -1.5892714 -1.0031046 -0.6866244 -1.3801638 -0.21335775
-0.5544812 -0.7119654 -1.6095564 -0.9777208 0.013626178 -0.8470803 -0.8199007 -1.2535616
00000000: eb6c cdbe b053 aa3c 4173 0abe b18f ebbf
00000010: 3aec 65bf 4d9a 98bf 7985 e4be 68e5 a9bf
00000020: 61ee eebe 5340 87bf d76d 90bf 29a2 c5bf
00000030: 3beb 33be a900 5abf 1746 bfbf 4010 46bf
00000040: 503e afbf 963b 09bf cb3b 93bf 0ace 05bf
00000050: da7b c5be f7e0 98bf be5e cabe 6d6e 08bd
00000060: ed61 29bf af70 28bf 6a9a 88bd ce10 89bf
00000070: ae86 17bf e3ea d2be ad66 1fbf adfb 8fbf
00000080: 91f7 11bf a5af 1abf 3365 a2bf 7bb8 47bf
00000090: 3d97 9cbf 2eac 0fbf 8bb5 7ebf 4fb1 77bf
000000a0: 5fb6 3fbf 299a 59bf 6810 b4be 6077 b1bf
000000b0: 6893 9bbf f00d 0ec0 ffb5 12bf 5d43 68bf
000000c0: 74d0 0abf 34af d6bf fa2a 50bf 3a22 71bf
000000d0: aa35 2fbf a903 66bf a72d 1bbf 4b16 b7bf
000000e0: f61a 72bf e58e f2be d573 97bf 552d d5bf
000000f0: d5c7 7cbc 17c6 94bf 047e bfbe 0831 5bbf
00000100: 327c a1bf 6549 30bf e97b 24bf c3e7 87bf
00000110: 4818 d9bf acf2 98bf 9da9 85bf 6a62 62bf
00000120: cd12 9dbf 7140 8ebf a81f c9bf 7805 70bf
00000130: ffa4 ccbe 91ae 84bf cb15 67bf 6da4 37bf
00000140: 4978 e6be c62d 86bf 4d56 43bf 1ecf abbf
00000150: 395c 88bf 1adc d2bf 9042 0bbf 73ad 74bf
00000160: 4056 57be 87b1 1e3d 54a3 5bbf a547 86bf
00000170: 0cf1 8dbf 0044 61bf 1de2 9cbf a608 77bf
00000180: 5a7d e9be 5c4b 1ac0 d101 93bf 9c40 b4be
00000190: 696d a3bf 9b52 1c3e 6d1c 16be bfd3 6ebf
000001a0: 1b98 b3bf d902 32bf 8e26 e5be c0b6 89bf
000001b0: 6652 eb3d 5a81 00bf 70b5 84bf 060e 8bbf
000001c0: 3506 acbf 7675 ccbf ff61 93bd 3f6d cbbf
000001d0: bb65 80bf 9ec6 2fbf 35a9 b0bf 747a 5abe
000001e0: 7bf2 0dbf 5d43 36bf f205 cebf e94b 7abf
000001f0: 5540 5f3c 41da 58bf 03e5 51bf b574 a0bf

31.running_mean f4 [128]
-20.193893 -79.367615 -136.1806 77.1271 -115.07892 -30.008732 21.739431 29.461708
72.34995 -29.084864 -6.728869 52.778114 -26.984177 -80.74706 -21.389006 -30.13151
-95.153435 20.999353 -72.418625 -1.3282554 -22.0165 -23.265049 -21.18678 -96.7088
11.115078 11.557638 -113.49557 1.138253 -2.544043 27.649645 -131.57773 75.81656
-14.228038 -21.640022 -79.90195 27.336105 -88.9265 -56.681683 -91.49223 -80.32122
75.07917 -36.027958 -19.38676 -47.11538 28.26152 -38.078037 8.310281 -39.758217
51.242832 9.8266735 39.698906 62.159843 -70.822266 7.019183 13.764118 -38.12275
-51.70725 -104.799835 -21.434774 0.5536471 -52.62122 -27.918093 -79.88973 -38.738293
-36.087395 -47.641724 -53.87971 -17.637629 32.233627 3.0838253 -79.75545 44.568478
-10.718296 58.82559 -31.198975 -96.0313 3.9785867 19.941639 31.651896 -39.668976
12.222869 -138.04918 -66.938705 -70.03493 18.40088 -20.22977 75.63973 36.464485
-48.46522 -94.78127 -57.914417 1.269282 -71.296074 -89.59696 -26.449677 108.78868
8.779534 -44.189304 15.088416 -37.297165 -12.974348 -93.37042 -156.23544 -11.022686
-76.8707 -103.77184 -61.30818 64.41951 -54.794743 37.653217 -100.42145 61.07496
46.567158 8.605886 -122.0817 38.07969 63.2583 -33.668995 -87.37438 -55.08041
-78.138115 -103.10961 -41.03739 118.904236 -18.540886 52.75162 -79.97432 -66.221886
00000000: 188d a1c1 38bc 9ec2 3c2e 08c3 1341 9a42
00000010: 6828 e6c2 e211 f0c1 5bea ad41 94b1 eb41
00000020: 2db3 9042 cdad e8c1 e552 d7c0 ca1c 5342
00000030: 98df d7c1 7f7e a1c2 af1c abc1 550d f1c1
00000040: 8f4e bec2 adfe a741 56d6 90c2 4604 aabf
00000050: cb21 b0c1 d21e bac1 877e a9c1 e86a c1c2
00000060: 5cd7 3141 16ec 3841 bbfd e2c2 46b2 913f
00000070: 9ad1 22c0 7932 dd41 e693 03c3 14a2 9742
00000080: 0ba6 63c1 c41e adc1 cccd 9fc2 58b0 da41
00000090: 5eda b1c2 0bba 62c2 06fc b6c2 77a4 a0c2
000000a0: 8928 9642 a11c 10c2 1618 9bc1 2676 3cc2
000000b0: 9817 e241 e94f 18c2 e9f6 0441 6a08 1fc2
000000c0: a9f8 4c42 0e3a 1d41 aecb 1e42 aea3 7842
000000d0: 00a5 8dc2 269d e040 d439 5c41 b27d 18c2
000000e0: 39d4 4ec2 8499 d1c2 6b7a abc1 d1bb 0d3f
000000f0: 217c 52c2 4158 dfc1 8bc7 9fc2 03f4 1ac2
00000100: 7e59 10c2 2091 3ec2 d384 57c2 dd19 8dc1
00000110: 3cef 0042 655d 4540 ca82 9fc2 1f46 3242
00000120: 247e 2bc1 674d 6b42 8097 f9c1 0710 c0c2
00000130: 2aa1 7e40 7a88 9f41 1537 fd41 08ad 1ec2
00000140: df90 4341 970c 0ac3 9ee0 85c2 e211 8cc2
00000150: 0135 9341 92d6 a1c1 8b47 9742 a2db 1142
00000160: 63dc 41c2 0390 bdc2 5da8 67c2 d577 a23f
00000170: 9797 8ec2 a531 b3c2 f098 d3c1 ce93 d942
00000180: f978 0c41 d9c1 30c2 276a 7141 4c30 15c2
00000190: ee96 4fc1 a8bd bac2 463c 1cc3 ec5c 30c1
000001a0: ccbd 99c2 2f8b cfc2 943b 75c2 cad6 8042
000001b0: d12d 5bc2 e59c 1642 c8d7 c8c2 c24c 7442
000001c0: c544 3a42 b6b1 0941 d529 f4c2 9a51 1842
000001d0: 8008 7d42 0dad 06c2 afbf aec2 5752 5cc2
000001e0: b746 9cc2 1f38 cec2 4a26 24c2 f8ce ed42
000001f0: bc53 94c1 a901 5342 daf2 9fc2 9b71 84c2
