27ml_rf/models/radio_27ml_w4a4_finn.onnx (onnx, 711196 bytes, 57 tensors)

2.weight f4 [64]
1.1368674 1.7537827 1.6262755 1.5410436 1.5938426 1.1832246 1.074269 1.181234
1.8541883 1.7127428 1.4914129 1.9402919 1.3752288 1.7801228 0.9324417 1.6100515
1.0919062 1.1864502 1.2020276 2.0594342 1.6881622 1.2810038 1.9832307 1.2389318
1.4958955 1.381693 1.6631435 1.5098097 1.7706516 1.1652193 1.1652075 1.3575289
1.594056 1.1281605 1.354672 1.7544191 1.6022384 3.2816787 1.4091946 1.289059
1.0092045 1.6337129 1.5578215 1.6284552 1.4607242 1.4275626 1.0730152 1.7204525
1.2380549 1.7462541 1.5647324 1.5974146 1.7248088 1.2236435 1.4788322 1.6488647
1.6910608 1.725351 1.1585568 1.678193 1.7826068 1.5792404 1.5435814 1.7253852
00000000: df84 913f f47b e03f cc29 d03f eb40 c53f
00000010: 0903 cc3f e773 973f a681 893f ad32 973f
00000020: 0b56 ed3f 283b db3f 9ee6 be3f 7c5b f83f
00000030: 7f07 b03f 10db e33f 80b4 6e3f 2b16 ce3f
00000040: 95c3 8b3f 9add 973f 0adc 993f c5cd 0340
00000050: b315 d83f eff7 a33f 81da fd3f 5195 9e3f
00000060: 8179 bf3f 51db b03f e3e1 d43f 7241 c13f
00000070: b6a4 e23f e825 953f 8525 953f 82c3 ad3f
00000080: 070a cc3f 9067 903f e465 ad3f ce90 e03f
00000090: 2616 cd3f 0607 5240 7d60 b43f e3ff a43f
000000a0: 9d2d 813f 811d d13f b266 c73f 3871 d03f
000000b0: 03f9 ba3f 5fba b63f 9058 893f ca37 dc3f
000000c0: 9578 9e3f 4185 df3f 2749 c83f 1578 cc3f
000000d0: 89c6 dc3f 5aa0 9c3f 604a bd3f 000e d33f
000000e0: ae74 d83f 4dd8 dc3f 974b 943f 07cf d63f
000000f0: 762c e43f 8d24 ca3f 1394 c53f 6cd9 dc3f

2.bias f4 [64]
0.50794417 -1.3600887 -0.09976911 -1.1675341 -0.24187714 0.3965263 -0.28462234 0.30421627
-1.3233426 0.86569864 -0.90243757 -0.34285688 0.2444507 -1.200487 0.3507602 -1.0173457
0.1723285 0.0055237855 -0.30959392 -0.49056315 -1.2721654 -0.22470662 2.3638568 -0.0008465089
-0.4089268 0.39324787 -1.2987 -0.5846982 -0.4693728 -0.14853664 -0.045506056 0.49038288
0.5608028 -0.1923781 0.6604204 -1.3329908 -0.5782927 -0.5961599 0.711143 -0.14318687
0.44861525 -1.4026916 -0.77481574 -1.2371224 -0.4653023 0.11980821 0.14813127 -1.5385674
-0.23821563 -1.443044 -1.1241701 -1.0109199 -1.4183661 0.089368895 -0.3009256 -0.66334367
-0.93073773 -1.1676015 0.051459976 -1.3832527 0.9738523 -1.068625 -0.83860403 0.39918905
00000000: a108 023f 6317 aebf bf53 ccbd c271 95bf
00000010: a4ae 77be 7f05 cb3e 05ba 91be 3cc2 9b3e
00000020: 4a63 a9bf 6d9e 5d3f 2606 67bf f08a afbe
00000030: 4951 7a3e 8fa9 99bf d796 b33e 6238 82bf
00000040: e276 303e df00 b53b 1883 9ebe 182b fbbe
00000050: 51d6 a2bf 7e19 66be 6e49 1740 40e8 5dba
00000060: db5e d1be c957 c93e cd3b a6bf c8ae 15bf
00000070: a251 f0be fd19 18be 8f64 3abd 7713 fb3e
00000080: c690 0f3f c4fe 44be 5011 293f 719f aabf
00000090: fe0a 14bf ef9d 18bf 780d 363f 949f 12be
000000a0: e6b0 e53e 668b b3bf 535a 46bf 075a 9ebf
000000b0: 1a3c eebe 025e f53d b9af 173e c7ef c4bf
000000c0: ccee 73be aab5 b8bf cee4 8fbf d365 81bf
000000d0: 058d b5bf 0a07 b73d ec12 9abe e4d0 29bf
000000e0: d444 6ebf f773 95bf b2c7 523d 6d0e b1bf
000000f0: 624e 793f b4c8 88bf c1ae 56bf 8262 cc3e

2.running_mean f4 [64]
0.29757476 0.10514208 -0.2740356 -0.26839125 0.29731038 0.14213124 0.115984164 -0.2007414
-0.14899893 0.27698156 -0.14023082 0.0016220859 0.17433523 -0.32615405 -0.000909422 0.3083922
0.043683816 0.0017387816 -0.06198525 -0.0015583804 0.21162093 -0.046484314 0.0077216323 0.06989738
0.07322206 -0.22821157 0.057066996 -0.20739064 0.008764747 0.00021095855 -0.0824897 -0.24925978
-0.099400856 0.027774498 -0.08188709 0.17110197 -0.0092947725 0.00498178 -0.14994861 0.15352495
0.23181164 0.30613747 0.2162485 -0.26815087 -0.20161119 -0.1625988 0.023729602 -0.31969407
-0.2380706 -0.146478 -0.13453966 0.31614825 0.31943187 0.23947345 0.30683243 -0.1224013
0.18172675 -0.0054855426 -0.1624364 -0.25352013 -0.30410376 -0.033921674 -0.29734018 0.14929546
00000000: b85b 983e bb54 d73d 654e 8cbe 946a 89be
00000010: 1139 983e da8a 113e 1b89 ed3d 278f 4dbe
00000020: 2d93 18be 87d0 8d3e ab98 0fbe 2c9c d43a
00000030: ef84 323e aafd a6be 4766 6eba 95e5 9d3e
00000040: cded 323d d4e7 e33a 3fe4 7dbd 9242 ccba
00000050: 28b3 583e 5666 3ebd bf05 fd3b 5c26 8f3d
00000060: 73f5 953d 4bb0 69be 15bf 693d 365e 54be
00000070: 039a 0f3c c134 5d39 5cf0 a8bd f53d 7fbe
00000080: ad92 cbbd 5887 e33c 6bb4 a7bd 5b35 2f3e
00000090: 1a49 18bc 333e a33b 218c 19be a535 1d3e
000000a0: 0860 6d3e 0dbe 9c3e 3f70 5d3e 124b 89be
000000b0: 2a73 4ebe 4d80 26be 9564 c23c f1ae a3be
000000c0: c8c8 73be 54fe 15be c4c4 09be 2fde a13e
000000d0: 938c a33e 8738 753e 2419 9d3e 88ad fabd
000000e0: 9416 3a3e 11c0 b3bb ba55 26be 64cd 81be
000000f0: 7db3 9bbe 74f1 0abd f93c 98be e9e0 183e

2.running_var f4 [64]
4756.5273 4462.1074 3631.4956 4689.8335 5533.5464 4692.0737 1955.1322 3360.5142
4697.394 5595.3677 4208.9746 1159.6382 3565.1145 5449.59 1947.5654 4799.8706
2817.7083 4732.0576 2703.221 1239.4825 5100.3525 4227.494 1125.3324 4397.6055
4434.8237 3657.0625 4507.06 5032.2456 879.07275 895.90216 3455.5427 3971.8123
4841.543 683.6929 4136.7837 3532.3235 843.3199 1023.69305 3411.8574 2255.9878
3184.673 5701.5273 3737.9038 5533.7354 2819.8115 3900.2935 895.7388 5095.663
3253.9382 6296.0376 2919.243 5151.8315 5343.6875 3219.6611 5129.6514 1728.1519
5009.6494 4660.866 2942.5862 3784.5203 4750.4004 4099.5093 5761.944 4013.7227
00000000: 38a4 9445 dc70 8b45 eef7 6245 ab8e 9245
00000010: 5fec ac45 97a0 9245 3b64 f444 3a08 5245
00000020: 27cb 9245 f1da ae45 cc87 8345 6cf4 9044
00000030: d5d1 5e45 b84c aa45 1872 f344 f7fe 9545
00000040: 551b 3045 76e0 9345 89f3 2845 71ef 9a44
00000050: d262 9f45 f41b 8445 a3aa 8c44 d86c 8945
00000060: 9796 8a45 0091 6445 7bd8 8c45 f741 9d45
00000070: a8c4 5b44 bdf9 5f44 aff8 5745 ff3c 7845
00000080: 584c 9745 58ec 2a44 4546 8145 2dc5 5c45
00000090: 79d4 5244 5bec 7f44 b83d 5545 ceff 0c45
000000a0: c50a 4745 382c b245 769e 6945 e2ed ac45
000000b0: fc3c 3045 b2c4 7345 48ef 5f44 4e3d 9f45
000000c0: 035f 4b45 4dc0 c445 e373 3645 a7fe a045
000000d0: 80fd a645 943a 4945 364d a045 dc04 d844
000000e0: 328d 9c45 eea6 9145 61e9 3745 5388 6c45
000000f0: 3473 9445 131c 8045 8d0f b445 90db 7a45

6.weight f4 [64]
1.5240645 1.9478239 1.4632542 1.4629312 1.1520905 1.4924921 1.6767668 1.6103836
1.3038372 1.2847255 2.832051 1.5899853 1.5953045 1.278526 1.281863 1.506063
1.2105235 1.5435736 1.5298724 1.4675446 1.5409278 1.9243004 1.4354346 1.7293661
1.2772084 1.6610008 1.5051222 1.8071872 1.2717036 1.6606739 1.4828553 1.2724067
1.5257081 1.7112721 1.4138643 1.2959657 1.336324 1.38787 1.4531444 1.5310133
1.1937419 1.053531 1.6060184 1.4171076 1.2821409 1.1784073 1.4367771 1.4662988
1.9414741 1.4055955 1.5065966 1.583132 1.4374261 1.6059912 2.5737367 1.4339274
1.6346147 2.0727088 1.3498139 1.4394345 1.3307645 1.2445192 1.7531439 1.4242413
00000000: 8c14 c33f 4b52 f93f ea4b bb3f 5441 bb3f
00000010: b477 933f fb09 bf3f 4ba0 d63f 0d21 ce3f
00000020: 23e4 a63f e371 a43f 5340 3540 a384 cb3f
00000030: f032 cc3f bda6 a33f 1614 a43f acc6 c03f
00000040: 6ff2 9a3f d293 c53f dcd2 c33f 80d8 bb3f
00000050: 1f3d c53f 7a4f f63f 52bc b73f de5b dd3f
00000060: 917b a33f ad9b d43f d8a7 c03f e951 e73f
00000070: 2fc7 a23f f690 d43f 34ce bd3f 39de a23f
00000080: 674a c33f f70a db3f 81f9 b43f 34e2 a53f
00000090: aa0c ab3f b9a5 b13f a300 ba3f 3ef8 c33f
000000a0: 89cc 983f 1bda 863f 0392 cd3f c863 b53f
000000b0: 311d a43f 0dd6 963f 50e8 b73f aeaf bb3f
000000c0: 3982 f83f 8eea b33f 28d8 c03f 12a4 ca3f
000000d0: 94fd b73f 1f91 cd3f 1ab8 2440 ef8a b73f
000000e0: 0e3b d13f 43a7 0440 b4c6 ac3f 643f b83f
000000f0: 7e56 aa3f 684c 9f3f 0567 e03f 8a4d b63f

6.bias f4 [64]
-1.3769499 -1.4063016 -0.58095753 -0.35882857 -0.4797805 -0.59112585 -1.2286321 -0.4167364
-0.8075988 -0.5327354 -1.5278568 -0.47926444 -0.5609653 -0.33068055 -0.68857753 -0.115434885
1.662861 -1.2741612 -0.5994272 -0.88391036 -1.4893042 -2.2037523 -0.58307034 -0.5036416
-0.34648657 -0.6087583 -0.26576883 -1.5964988 -0.4106195 -0.98317045 -0.29037273 -0.72001237
-1.1023952 -0.33904186 -0.013163641 -0.30559456 -0.9016138 -0.29645988 -0.4068937 -0.7231306
-0.5394207 -0.08581751 -0.68034965 -0.8537241 -1.2105587 -1.4774026 -0.5695985 -0.5151331
-1.1773131 -1.0367985 -1.1800427 -0.69424546 -0.9231013 -0.30243063 -2.8937082 -1.0314288
-0.62122697 -2.006609 -0.87157017 -0.9935077 -0.27714005 -0.63687813 -1.0199063 -0.52978367
00000000: e53f b0bf b101 b4bf a2b9 14bf 61b8 b7be
00000010: caa5 f5be 0654 17bf d143 9dbf 795e d5be
00000020: ccbe 4ebf 5961 08bf d090 c3bf 2662 f5be
00000030: 6c9b 0fbf f64e a9be 9e46 30bf 2069 ecbd
00000040: a1d8 d43f b717 a3bf 1074 19bf f347 62bf
00000050: 85a1 bebf 470a 0dc0 1944 15bf a8ee 00bf
00000060: b066 b1be 95d7 1bbf da12 88be 135a ccbf
00000070: b83c d2be 0fb1 7bbf bcab 94be bb52 38bf
00000080: 491b 8dbf e596 adbe 50ac 57bc e476 9cbe
00000090: 29d0 66bf 97c9 97be 5f54 d0be 161f 39bf
000000a0: 7a17 0abf 17c1 afbd 652b 2ebf aa8d 5abf
000000b0: 96f3 9abf 871b bdbf 35d1 11bf c3df 03bf
000000c0: 32b2 96bf d0b5 84bf a40b 97bf 12ba 31bf
000000d0: 5e50 6cbf 30d8 9abe 8432 39c0 dc05 84bf
000000e0: bb08 1fbf 486c 00c0 391f 5fbf 8556 7ebf
000000f0: 4de5 8dbe 720a 23bf 4a8c 82bf e79f 07bf

6.running_mean f4 [64]
4.6634097 87.381195 -23.295399 -13.833628 -23.805117 -35.043407 -29.863676 -29.875786
24.854773 13.568421 -60.056965 -24.075974 25.386658 23.825909 -11.779912 -41.441597
-69.97985 -13.175008 16.669985 -22.339542 -4.1190357 -57.8124 18.448505 -36.417454
-25.78995 -26.804615 -5.1025343 -8.07906 -21.365828 16.271492 -25.719133 24.882776
9.746688 -13.152504 -22.710535 -16.58772 26.978918 -27.62449 20.376188 22.001377
-30.191576 -13.551324 -36.2916 -27.94476 -44.22408 11.328506 -24.544737 -26.471058
-30.519508 -34.471638 50.294197 -24.697279 -33.801064 16.796352 -76.459404 19.254265
22.161661 -69.79808 -14.886954 -21.493689 24.889708 21.765783 -37.052135 -22.578753
00000000: a73a 9540 2cc3 ae42 fa5c bac1 8a56 5dc1
00000010: e170 bec1 732c 0cc2 cfe8 eec1 9c01 efc1
00000020: 93d6 c641 4118 5941 553a 70c2 989b c0c1
00000030: e017 cb41 769b be41 857a 3cc1 32c4 25c2
00000040: aff5 8bc2 d5cc 52c1 215c 8541 62b7 b2c1
00000050: 24cf 83c0 e63f 67c2 8a96 9341 79ab 11c2
00000060: d151 cec1 da6f d6c1 f647 a3c0 d443 01c1
00000070: 37ed aac1 042c 8241 c9c0 cdc1 ed0f c741
00000080: 6ff2 1b41 a870 52c1 2daf b5c1 a7b3 84c1
00000090: d3d4 d741 f5fe dcc1 6f02 a341 d202 b041
000000a0: 5988 f1c1 39d2 58c1 992a 11c2 de8e dfc1
000000b0: 75e5 30c2 9041 3541 9f5b c4c1 bac4 d3c1
000000c0: f427 f4c1 f5e2 09c2 422d 4942 0794 c5c1
000000d0: 4a34 07c2 ee5e 8641 37eb 98c2 bc08 9a41
000000e0: 154b b141 9e98 8bc2 f730 6ec1 13f3 abc1
000000f0: 1f1e c741 5320 ae41 6335 14c2 49a1 b4c1

6.running_var f4 [64]
701.16364 914.19165 1603.8544 1615.2917 907.5796 1709.5077 429.2642 1642.6904
1795.6816 715.05597 748.52374 1204.6075 2209.085 1123.0668 987.5759 980.63837
697.8008 665.65094 780.979 538.94543 686.6186 584.2442 888.8123 2241.267
1302.4774 2560.844 1579.5944 695.7483 653.99963 382.0056 944.48773 1339.6677
367.22638 1919.1775 1170.1177 1523.7223 2070.1035 1091.899 510.04865 362.33264
628.6613 1692.6361 1588.682 566.44037 801.3927 418.2285 1532.3533 2307.5823
215.93977 681.02686 1308.7107 1502.9149 536.25415 284.4017 653.601 379.2904
385.1065 659.18115 430.00906 1180.4479 612.1448 1193.4199 554.547 1749.4147
00000000: 794a 2f44 448c 6444 577b c844 56e9 c944
00000010: 18e5 6244 3fb0 d544 d1a1 d643 1856 cd44
00000020: d075 e044 95c3 3244 8521 3b44 7193 9644
00000030: 5c11 0a45 2362 8c44 dce4 7644 db28 7544
00000040: 4073 2e44 a969 2644 a83e 4344 82bc 0644
00000050: 97a7 2b44 a10f 1244 fd33 5e44 4614 0c45
00000060: 47cf a244 810d 2045 0573 c544 e4ef 2d44
00000070: fa7f 2344 b800 bf43 371f 6c44 5e75 a744
00000080: fa9c b743 aee5 ef44 c443 9244 1d77 be44
00000090: a861 0145 c57c 8844 3a06 ff43 942a b543
000000a0: 532a 1d44 5b94 d344 d395 c644 2f9c 0d44
000000b0: 2259 4844 3f1d d143 4e8b bf44 5139 1045
000000c0: 95f0 5743 b841 2a44 be96 a344 47dd bb44
000000d0: 4410 0644 6b33 8e43 7766 2344 2ca5 bd43
000000e0: a28d c043 98cb 2444 2901 d743 558e 9344
000000f0: 4409 1944 702d 9544 02a3 0a44 45ad da44

10.weight f4 [64]
1.1693516 0.89763945 0.72149825 1.610644 0.9378268 1.3057233 0.89197975 1.6652621
1.1229558 1.2624213 1.7505215 1.7102394 1.5273466 1.4674168 1.6672235 1.3406067
0.94219714 1.3757473 1.2665579 1.0422478 0.87896055 1.0936159 1.8181926 1.6020584
1.6899645 1.619584 1.1160208 1.1417127 1.2403198 1.2430775 1.6865584 1.5823985
1.670911 0.94476074 1.7034632 0.95714146 1.8567289 1.5194917 1.1883011 1.3322048
1.1457568 1.4022304 1.4174782 1.8189385 1.5895661 1.3391345 1.4460242 1.7633064
1.1054277 0.9412545 1.665707 1.1392276 1.5553263 1.5913783 1.625551 1.2867837
1.4497426 1.1951019 1.0905724 1.046764 3.0005608 1.263065 1.4549842 1.7396649
00000000: 50ad 953f b3cb 653f 1cb4 383f 9529 ce3f
00000010: 6b15 703f f121 a73f c958 643f 4f27 d53f
00000020: 04bd 8f3f 0597 a13f 1711 e03f 20e9 da3f
00000030: 1880 c33f 50d4 bb3f 9467 d53f 0099 ab3f
00000040: d533 713f 7d18 b03f 921e a23f 6068 853f
00000050: 8f03 613f 9bfb 8b3f 89ba e83f 4010 cd3f
00000060: c250 d83f 874e cf3f c5d9 8e3f a423 923f
00000070: cdc2 9e3f 2a1d 9f3f 25e1 d73f 098c ca3f
00000080: 69e0 d53f d7db 713f 150b da3f 3907 753f
00000090: 4ba9 ed3f b47e c23f 401a 983f b085 aa3f
000000a0: 29a8 923f 497c b33f ed6f b53f fad2 e83f
000000b0: e776 cb3f c268 ab3f 5217 b93f 06b4 e13f
000000c0: a87e 8d3f 0ef6 703f e335 d53f 36d2 913f
000000d0: ef14 c73f 49b2 cb3f 0e12 d03f 54b5 a43f
000000e0: 2a91 b93f 19f9 983f e097 8b3f 5dfc 853f
000000f0: 3009 4040 1dac a13f ec3c ba3f 57ad de3f

10.bias f4 [64]
-1.7713345 -0.7522254 -0.39299694 -0.8167166 -0.6964403 -0.5751497 -0.63446033 -2.25933
-0.9308123 -0.6740923 -1.0850568 -1.5631065 -1.511105 -1.0273019 -0.9597586 -0.33360052
-1.1984979 -1.1625903 -1.2244211 -0.9902948 -0.39501503 -0.6512106 -2.8836558 -1.6418366
-1.4655663 -1.3956244 -1.3599014 -0.43522093 -1.1584332 -1.4439025 -0.38962427 -0.3880179
-0.2450489 -0.5114165 -1.0712428 -0.85548913 -1.0305036 -0.35263246 -1.0559057 -0.77326775
-1.3721678 -0.8598866 -0.5396338 -1.7889344 -1.8561709 -0.97507566 -1.2646161 -1.334212
-0.6541561 -0.5091219 -0.9249654 -0.3648603 -1.2215449 -1.0919919 -0.8797993 -1.8179871
-1.3656101 -1.2785887 -1.0227515 -0.42935875 -2.98032 -0.5959117 -1.2305698 -2.110942
00000000: 17bb e2bf d891 40bf e536 c9be 5714 51bf
00000010: e949 32bf 033d 13bf fe6b 22bf dd98 10c0
00000020: b749 6ebf 5091 2cbf 24e3 8abf e013 c8bf
00000030: e36b c1bf a17e 83bf bdb2 75bf b0cd aabe
00000040: 6168 99bf c2cf 94bf d5b9 9cbf f683 7dbf
00000050: 693f cabe bdb5 26bf d18d 38c0 b427 d2bf
00000060: ad97 bbbf d2a3 b2bf 4011 aebf 47d5 debe
00000070: 8a47 94bf ccd1 b8bf d57c c7be 48aa c6be
00000080: 19ee 7abe 31ec 02bf 7c1e 89bf 5601 5bbf
00000090: 8be7 83bf 3e8c b4be eb27 87bf e0f4 45bf
000000a0: 32a3 afbf 8721 5cbf 7125 0abf cdfb e4bf
000000b0: 0297 edbf 8f9e 79bf f1de a1bf 75c7 aabf
000000c0: c676 27bf d055 02bf 88ca 6cbf f8ce babe
000000d0: 955b 9cbf 64c6 8bbf 873a 61bf cdb3 e8bf
000000e0: 50cc aebf cba8 a3bf 85e9 82bf e9d4 dbbe
000000f0: 90bd 3ec0 ab8d 18bf 5083 9dbf ac19 07c0

10.running_mean f4 [64]
0.838016 -6.7036924 -6.147444 -28.83466 -15.606964 -3.0531006 -20.880085 2.0666273
-25.973335 -8.448045 -0.061825465 -11.414217 -0.9384545 -2.0530014 -28.662016 -12.981605
2.859535 12.533457 -11.901839 -8.141671 -14.179734 -11.043704 20.681467 -15.298074
-13.611484 -15.527562 -6.5491147 1.3842902 -7.4481573 -1.3236489 -6.747358 -15.083039
-34.09797 -14.089687 -20.471155 -10.913966 -16.241758 -26.750505 -7.384197 8.731022
4.3494577 -15.057409 -2.3772268 -8.517237 -9.001387 -3.7309604 1.9392866 -17.68468
-17.041346 -5.870768 -17.443232 11.31903 -22.883425 -14.368591 -27.020922 -1.7175169
-19.952074 0.83994955 -12.21868 -11.284466 -18.700699 -8.457932 -8.060962 -18.276413
00000000: 3788 563f a684 d6c0 dcb7 c4c0 62ad e6c1
00000010: 20b6 79c1 0066 43c0 6a0a a7c1 9f43 0440
00000020: 64c9 cfc1 312b 07c1 b33c 7dbd a2a0 36c1
00000030: 8e3e 70bf 6064 03c0 cf4b e5c1 a7b4 4fc1
00000040: 9f02 3740 0a89 4841 ef6d 3ec1 4944 02c1
00000050: 31e0 62c1 03b3 30c1 a573 a541 e9c4 74c1
00000060: a3c8 59c1 e570 78c1 5992 d1c0 6c30 b13f
00000070: 4e57 eec0 546d a9bf 5bea d7c0 2154 71c1
00000080: 5264 08c2 5c6f 61c1 edc4 a3c1 9b9f 2ec1
00000090: 1fef 81c1 0901 d6c1 584b ecc0 44b2 0b41
000000a0: c22e 8b40 26eb 70c1 7c24 18c0 9a46 08c1
000000b0: ae05 10c1 0ec8 6ec0 8b3a f83f 3a7a 8dc1
000000c0: ad54 88c1 55dd bbc0 bd8b 8bc1 bf1a 3541
000000d0: 4111 b7c1 c0e5 65c1 d92a d8c1 98d7 dbbf
000000e0: d99d 9fc1 ef06 573f b77f 43c1 2c8d 34c1
000000f0: 089b 95c1 b153 07c1 b3f9 00c1 1836 92c1

10.running_var f4 [64]
227.52324 185.425 256.564 781.1562 415.96933 650.6922 350.182 98.657684
160.72182 290.14206 555.7252 514.279 610.173 638.0675 620.12274 641.33344
161.08409 533.3536 412.12527 158.73479 288.04822 589.4327 264.52872 584.21265
587.2352 475.94635 117.40643 293.29614 275.35025 213.06468 468.87674 454.39972
403.7746 454.49884 811.5974 189.76749 828.94006 519.3924 234.98589 471.86456
442.60324 698.5401 464.0179 536.20026 586.69403 559.76465 535.3723 689.6832
486.264 453.65143 342.30997 557.0013 641.6089 614.2181 320.07953 274.26538
695.73975 359.0083 218.68144 663.92596 298.26904 211.77768 522.73737 137.49875
00000000: f385 6343 cd6c 3943 3148 8043 ff49 4344
00000010: 13fc cf43 4dac 2244 4c17 af43 bc50 c542
00000020: c9b8 2043 2f12 9143 6aee 0a44 db91 0044
00000030: 128b 1844 5284 1f44 db07 1b44 5755 2044
00000040: 8715 2143 a156 0544 0910 ce43 1bbc 1e43
00000050: 2c06 9043 b15b 1344 ad43 8443 9c0d 1244
00000060: 0ecf 1244 22f9 ed43 18d0 ea42 e8a5 9243
00000070: d5ac 8943 8f10 5543 3970 ea43 2a33 e343
00000080: 26e3 c943 da3f e343 3ce6 4a44 7ac4 3d43
00000090: 2a3c 4f44 1dd9 0144 63fc 6a43 aaee eb43
000000a0: 374d dd43 91a2 2e44 4b02 e843 d10c 0644
000000b0: 6bac 1244 f0f0 0b44 d4d7 0544 ba6b 2c44
000000c0: cb21 f343 62d3 e243 ad27 ab43 1540 0b44
000000d0: f866 2044 f58d 1944 2e0a a043 f821 8943
000000e0: 58ef 2d44 1081 b343 73ae 5a43 43fb 2544
000000f0: 7022 9543 16c7 5343 31af 0244 ae7f 0943

14.weight f4 [64]
1.1597053 1.6006851 1.1782272 1.2638328 1.5292122 1.5971707 1.1921049 0.81159794
0.9995916 1.0005845 1.5612842 1.2894332 0.7985142 1.1273855 1.1224198 1.0573679
1.6226308 1.0237507 1.6898512 1.0674312 1.5409636 1.2273058 1.0103611 0.6790204
0.9286334 1.2551014 0.9427714 1.1607127 1.4514195 1.2213167 0.9207822 1.7346861
1.3883352 0.8568506 1.0852123 1.1001008 1.0098855 1.5188053 1.997263 0.77553713
0.8882917 1.5564742 0.72365844 1.4241179 0.94660956 1.5329597 1.0594603 1.4148986
1.753608 1.6130924 1.5664438 0.70406884 1.209354 1.3661933 1.1309187 1.960761
1.1207131 1.5258663 1.037715 1.223225 0.84391266 0.9612556 1.2431854 1.3642249
00000000: 3971 943f 40e3 cc3f 26d0 963f 46c5 a13f
00000010: 3abd c33f 1770 cc3f e596 983f e2c4 4f3f
00000020: 3ce5 7f3f 2713 803f 29d8 c73f 260c a53f
00000030: 6d6b 4c3f 2b4e 903f 74ab 8f3f d557 873f
00000040: 5eb2 cf3f 430a 833f 0b4d d83f 96a1 883f
00000050: 4c3e c53f 5b18 9d3f 8353 813f 48d4 2d3f
00000060: ebba 6d3f 2aa7 a03f 7759 713f 3c92 943f
00000070: 1dc8 b93f 1b54 9c3f 62b8 6b3f 320a de3f
00000080: f8b4 b13f 905a 5b3f 3de8 8a3f 1ad0 8c3f
00000090: ee43 813f 3668 c23f 50a6 ff3f 9a89 463f
000000a0: 1667 633f 8c3a c73f ae41 393f 7f49 b63f
000000b0: 0155 723f 0638 c43f 659c 873f 661b b53f
000000c0: 3a76 e03f d079 ce3f 3b81 c83f db3d 343f
000000d0: 1dcc 9a3f 6cdf ae3f f2c1 903f 37fa fa3f
000000e0: 8773 8f3f 964f c33f d8d3 843f a392 9c3f
000000f0: a90a 583f d914 763f b320 9f3f ec9e ae3f

14.bias f4 [64]
-0.16511784 -2.0918376 0.010699167 -1.2490879 -2.7642822 -2.7229245 -0.38896528 -0.24965464
0.22858874 -0.44904956 -1.833051 0.05248935 0.2526546 -1.5130731 -2.219052 -2.1397562
-2.1385753 -0.5914946 -1.7990135 -2.10711 -0.6082689 -1.3285177 1.1319376 0.84034055
-0.396941 -2.2363763 -1.3814797 -2.256398 -1.1115253 -0.41952583 0.3136694 -1.8745736
-1.3641703 -0.31783834 0.5909285 -0.6585352 -0.44839245 -1.5135237 -2.1930304 -0.3480923
-0.27010483 -1.6943282 -0.4049227 -1.0723902 0.4941344 -1.6614656 -0.1331314 -1.5899787
-2.5036857 -2.0515141 -1.8032535 0.07919777 -0.6641234 -0.07919194 -0.88679975 -2.4308536
-1.0874631 -1.105499 -0.93831587 -1.2229875 -0.24385937 -0.06283141 -0.9314046 -1.6555997
00000000: a714 29be abe0 05c0 8f4b 2f3c 1de2 9fbf
00000010: 00ea 30c0 6544 2ec0 7526 c7be 77a5 7fbe
00000020: 2b13 6a3e d3e9 e5be 6aa1 eabf 13ff 563d
00000030: f25b 813e 61ac c1bf f304 0ec0 c4f1 08c0
00000040: 6bde 08c0 316c 17bf 1346 e6bf e4da 06c0
00000050: 83b7 1bbf de0c aabf 55e3 903f 8f20 573f
00000060: da3b cbbe ca20 0fc0 54d4 b0bf d368 10c0
00000070: 7646 8ebf 17cc d6be 4799 a03e 07f2 efbf
00000080: 229d aebf b5bb a2be 1747 173f c395 28bf
00000090: b293 e5be 25bb c1bf 9c5a 0cc0 2739 b2be
000000a0: 2e4b 8abe bfdf d8bf 0752 cfbe 1544 89bf
000000b0: 2fff fc3e e8aa d4bf 9953 08be 6c84 cbbf
000000c0: 633c 20c0 024c 03c0 03d1 e6bf 7132 a23d
000000d0: fe03 2abf 622f a2bd 4f05 63bf 1b93 1bc0
000000e0: fe31 8bbf fe80 8dbf 7835 70bf db8a 9cbf
000000f0: 45b6 79be c1ad 80bd 8870 6ebf b1ea d3bf

14.running_mean f4 [64]
-2.6252573 -6.746797 -4.0379753 1.713651 -2.545666 3.3323922 -7.5510554 12.50159
-9.984163 -11.678762 -8.843997 -18.33146 -0.378268 -4.3066034 5.794078 7.7965937
-0.10803773 -11.085744 -10.903803 0.80324095 -3.1398911 -2.6169145 -37.25495 4.919707
-10.645766 -3.9746144 6.7271075 -0.5293134 -10.1938095 -5.7103496 -2.5826068 -3.5433612
-6.0754633 -4.375427 -4.406271 -6.047871 -13.470639 0.7791306 -5.177007 0.6966259
-3.7669563 -2.691542 10.911343 -11.4264345 5.9238486 -7.992133 -22.797213 4.528307
-4.169771 -5.129933 1.64346 -4.733701 -10.609878 4.988412 -6.5785103 -13.455932
-10.115997 -5.00523 -8.122834 -10.9552 3.4163005 -4.7644744 -12.512195 -7.7774487
00000000: 3704 28c0 c3e5 d7c0 1837 81c0 ea58 db3f
00000010: 31ec 22c0 ea45 5540 3fa2 f1c0 8306 4841
00000020: 22bf 1fc1 36dc 3ac1 0381 0dc1 d5a6 92c1
00000030: 58ac c1be b2cf 89c0 1669 b940 b27d f940
00000040: e342 ddbd 355f 31c1 fa75 2ec1 33a1 4d3f
00000050: faf3 48c0 877b 27c0 1205 15c2 3d6e 9d40
00000060: 0f55 2ac1 1560 7ec0 7744 d740 1581 07bf
00000070: d819 23c1 2fbb b6c0 6e49 25c0 6ec6 62c0
00000080: 326a c2c0 7f03 8cc0 2c00 8dc0 2988 c1c0
00000090: bd87 57c1 1a75 473f 0baa a5c0 1356 323f
000000a0: d015 71c0 3942 2cc0 dc94 2e41 add2 36c1
000000b0: 2b90 bd40 8ebf ffc0 b160 b6c1 e4e7 9040
000000c0: c46e 85c0 6928 a4c0 e65c d23f 7b7a 97c0
000000d0: 0fc2 29c1 12a1 9f40 2883 d2c0 7f4b 57c1
000000e0: 20db 21c1 d82a a0c0 21f7 01c1 8048 2fc1
000000f0: aba4 5a40 9376 98c0 f331 48c1 dce0 f8c0

14.running_var f4 [64]
219.18283 57.942753 273.7866 79.61314 46.039253 36.851906 202.87956 86.67496
213.09982 149.09796 62.885338 406.839 115.42246 109.71894 84.840836 67.18005
104.91092 126.4166 140.77238 74.244705 413.32172 70.579216 327.81238 164.79105
164.1364 53.28876 72.51299 79.70466 92.144066 300.67847 211.35268 116.906845
71.99224 123.293045 274.97293 94.61805 203.41568 81.30366 159.37778 131.38809
145.8137 133.36574 115.18673 74.34636 230.66368 121.0838 312.6433 106.41772
87.222466 64.16639 51.65404 135.4075 262.35495 80.84894 124.42767 111.27189
111.45991 69.666565 82.151665 148.4124 128.61768 157.0428 71.15499 119.523796
00000000: ce2e 5b43 61c5 6742 afe4 8843 ed39 9f42
00000010: 3228 3842 5a68 1342 2be1 4a43 9459 ad42
00000020: 8e19 5543 1419 1543 968a 7b42 646b cb43
00000030: 4dd8 e642 1970 db42 82ae a942 305c 8642
00000040: 64d2 d142 4dd5 fc42 bbc5 0c43 4a7d 9442
00000050: 2ea9 ce43 8f28 8d42 fce7 a343 82ca 2443
00000060: eb22 2443 b127 5542 a706 9142 c968 9f42
00000070: c349 b842 d856 9643 495a 5343 4ed0 e942
00000080: 07fc 8f42 0a96 f642 897c 8943 713c bd42
00000090: 6a6a 4b43 799b a242 b660 1f43 5a63 0343
000000a0: 4fd0 1143 a15d 0543 9b5f e642 56b1 9442
000000b0: e7a9 6643 e82a f242 5852 9c43 dfd5 d442
000000c0: e771 ae42 3155 8042 bd9d 4e42 5268 0743
000000d0: 6f2d 8343 a8b2 a142 f8da f842 358b de42
000000e0: 79eb de42 4855 8b42 a74d a442 9369 1443
000000f0: 209e 0043 f50a 1d43 5b4f 8e42 2f0c ef42

18.weight f4 [64]
1.1676555 1.530508 1.1302904 0.95922107 1.0691395 1.1628568 1.1171727 1.0467131
0.85597605 1.1905388 1.0496814 1.6547296 1.2363669 1.7258093 2.0432162 1.5496135
0.8622936 1.2243351 2.2335644 1.5339766 1.6003159 1.4990822 1.0787851 1.5125166
1.1514102 1.7036668 1.3734659 1.0809313 1.1064492 0.90256506 3.1897712 1.1927459
1.5635444 1.8513855 1.7117238 1.751815 1.5569413 1.1909755 1.1556935 0.7753249
1.3462102 1.784733 1.0388545 1.0035175 1.1783502 1.346144 1.4261 1.028969
1.3093232 0.9734518 1.3897653 0.8780771 1.1529547 1.2986559 1.4964814 1.2640872
1.4745797 1.479995 1.1964223 3.050679 1.7766578 0.9914155 0.8701005 1.1834213
00000000: bc75 953f b0e7 c33f 5bad 903f 838f 753f
00000010: 90d9 883f 7ed8 943f 84ff 8e3f b2fa 853f
00000020: 3f21 5b3f 9363 983f f65b 863f 2ece d33f
00000030: 4541 9e3f 52e7 dc3f 0ec4 0240 bc59 c63f
00000040: 46bf 5c3f 03b7 9c3f b8f2 0e40 5859 c43f
00000050: 27d7 cc3f ede1 bf3f a115 8a3f 259a c13f
00000060: 6961 933f c111 da3f bbcd af3f f55b 8a3f
00000070: 21a0 8d3f 810e 673f 3625 4c40 e6ab 983f
00000080: 3922 c83f 33fa ec3f c419 db3f 793b e03f
00000090: da49 c73f e371 983f c4ed 933f b17b 463f
000000a0: 9e50 ac3f 2272 e43f 2ff9 843f 4373 803f
000000b0: 2ed4 963f 724e ac3f 728a b63f 42b5 833f
000000c0: e797 a73f 2334 793f d4e3 b13f a9c9 603f
000000d0: 0594 933f 5b3a a63f b48c bf3f 9ccd a13f
000000e0: 07bf bc3f 7a70 bd3f 5e24 993f 533e 4340
000000f0: 8669 e33f 68cd 7d3f e8be 5e3f 597a 973f

18.bias f4 [64]
-1.0539398 -1.6159045 -1.0269449 -0.02534643 0.9936561 -1.1920216 -1.6964678 -0.047565527
-0.40010712 -0.6419719 -1.1729599 -0.91647905 -0.8553297 -0.6787324 -0.008542332 -0.8055575
0.27558023 -1.8257858 -2.2088363 -1.3788278 -0.43880245 -1.5274974 -0.9997112 -0.09653636
-1.2682651 -0.8796426 -0.014135965 -1.0312996 -0.4551382 -0.95396316 -1.9576073 0.26416156
-1.4672903 -0.81418145 -1.1604948 -0.77625024 -0.5986032 -0.06958685 -1.6479173 0.4489348
-0.8109872 -0.8834454 -0.59607404 0.5072761 -0.9647037 -0.80485255 -1.1124818 -1.3024496
-0.960492 -0.2519073 -1.0791343 -1.0853173 -1.5638645 -1.0816233 0.42536595 -2.0536408
-0.644389 -0.6247362 0.78291744 -3.0825958 -0.85202 -0.13656518 0.33806425 -1.0041846
00000000: 80e7 86bf f5d5 cebf ee72 83bf 51a3 cfbc
00000010: 3f60 7e3f 2a94 98bf db25 d9bf 12d4 42bd
00000020: d7da ccbe 4558 24bf 8d23 96bf 5f9e 6abf
00000030: e3f6 5abf 68c1 2dbf 23f5 0bbc 0439 4ebf
00000040: da18 8d3e 59b3 e9bf 935d 0dc0 6e7d b0bf
00000050: b7aa e0be 0985 c3bf 13ed 7fbf dbb4 c5bd
00000060: 8356 a2bf 4230 61bf 899a 67bc a001 84bf
00000070: e007 e9be ee36 74bf e092 fabf 2f40 873e
00000080: 2bd0 bbbf 326e 50bf 188b 94bf 56b8 46bf
00000090: 0f3e 19bf 8d83 8ebd f4ee d2bf c8da e53e
000000a0: db9c 4fbf 7a29 62bf 4f98 18bf d9dc 013f
000000b0: d2f6 76bf d10a 4ebf ce65 8ebf abb6 a6bf
000000c0: cee2 75bf fef9 80be 1321 8abf adeb 8abf
000000d0: b62c c8bf a272 8abf 91c9 d93e da6e 03c0
000000e0: adf6 24bf b6ee 1fbf 476d 483f 4049 45c0
000000f0: fc1d 5abf bed7 0bbe c216 ad3e 1f89 80bf

18.running_mean f4 [64]
-20.788183 -20.323143 -10.797678 -6.1430316 -20.465658 -14.618514 -7.614859 -10.542481
-7.5998225 -15.720034 -0.04981813 5.063175 -17.105145 -7.9489837 -24.515558 -21.876583
1.9258837 -8.854355 -5.247755 -6.0076017 -11.447045 -8.79806 -6.9866905 1.1633313
-0.4125486 -15.0263195 -9.672032 -9.773563 -2.8173385 8.0947895 -4.807206 -5.8364334
-26.908768 -9.982539 -13.670463 -0.891274 -5.3597107 -0.29849005 7.8449 11.83037
-19.08586 -35.74373 -1.7946264 -16.612442 -1.804928 -2.7108488 -7.537001 -7.903737
-7.5647597 -1.5662954 -1.7277788 -3.1084063 -1.9111546 -14.51128 21.5844 -1.9115784
13.242953 -11.954516 -3.0717976 -3.2452588 -8.074568 -11.899067 0.5586821 -5.3516803
00000000: 334e a6c1 cc95 a2c1 4ac3 2cc1 b793 c4c0
00000010: abb9 a3c1 6fe5 69c1 edac f3c0 01ae 28c1
00000020: bf31 f3c0 4285 7bc1 180e 4cbd 8805 a240
00000030: 56d7 88c1 135e fec0 dd1f c4c1 3e03 afc1
00000040: 5b83 f63f 70ab 0dc1 9ced a7c0 463e c0c0
00000050: 1927 37c1 dbc4 0cc1 f892 dfc0 0ae8 943f
00000060: 9239 d3be ce6b 70c1 a5c0 1ac1 8460 1cc1
00000070: 464f 34c0 4284 0141 a2d4 99c0 10c4 bac0
00000080: 2845 d7c1 7bb8 1fc1 37ba 5ac1 882a 64bf
00000090: c082 abc0 b0d3 98be 6c09 fb40 3249 3d41
000000a0: d7af 98c1 94f9 0ec2 51b6 e5bf 48e6 84c1
000000b0: e107 e7bf 8c7e 2dc0 1d2f f1c0 6aeb fcc0
000000c0: 8312 f2c0 5e7c c8bf db27 ddbf 21f0 46c0
000000d0: b7a0 f4bf 342e 68c1 daac ac41 9aae f4bf
000000e0: 23e3 5341 b345 3fc1 5598 44c0 52b2 4fc0
000000f0: 6e31 01c1 9462 3ec1 ca05 0f3f f740 abc0

18.running_var f4 [64]
103.096504 59.273262 156.72417 64.262276 215.19012 38.236908 49.983074 68.62645
74.23485 151.28891 56.169357 62.151463 95.00493 351.9617 284.7937 504.48346
198.9092 38.54362 41.52516 81.245316 234.5182 47.431385 88.99911 327.81622
99.90029 246.79744 230.52205 54.397533 54.798286 79.73248 62.33267 176.3102
147.43199 332.50018 145.20311 62.80581 275.21027 271.50217 91.723656 114.9507
127.55578 331.61905 96.68223 202.01807 61.235355 104.72277 80.6586 28.448246
215.81795 120.218666 56.940235 47.98036 19.93519 127.112236 539.36395 50.989597
134.96173 227.68037 152.30602 52.653683 281.94943 111.91906 112.26693 83.421196
00000000: 6931 ce42 d217 6d42 63b9 1c43 4986 8042
00000010: ac30 5743 98f2 1842 abee 4742 be40 8942
00000020: 3e78 9442 f649 1743 6cad 6042 199b 7842
00000030: 8602 be42 19fb af43 9865 8e43 e23d fc43
00000040: c1e8 4643 ab2c 1a42 c419 2642 9a7d a242
00000050: a984 6a43 bdb9 3d42 8bff b142 7ae8 a343
00000060: f3cc c742 25cc 7643 a585 6643 1397 5942
00000070: 7231 5b42 0877 9f42 a754 7942 694f 3043
00000080: 976e 1343 0640 a643 ff33 1143 2639 7b42
00000090: ea9a 8943 47c0 8743 8372 b742 c2e6 e542
000000a0: 8f1c ff42 3dcf a543 4d5d c142 a004 4a43
000000b0: 01f1 7442 0f72 d142 3451 a142 0296 e341
000000c0: 65d1 5743 f56f f042 cdc2 6342 e3eb 3f42
000000d0: 457b 9f41 7739 fe42 4bd7 0644 59f5 4b42
000000e0: 34f6 0643 2dae 6343 574e 1843 5f9d 5242
000000f0: 87f9 8c43 8fd6 df42 ab88 e042 a7d7 a642

22.weight f4 [64]
1.9460484 0.7620354 1.2138557 0.9364653 0.832273 1.0891453 1.2109513 0.9546445
1.6537206 1.3622525 1.0523926 1.2280897 1.0947701 2.195228 1.0154146 1.0570539
0.7903895 0.9373805 1.058594 1.3952801 1.0591003 0.9204358 1.2070979 1.1923261
3.149193 1.189316 1.3409461 0.940958 1.0279331 1.3804098 0.7872203 0.9055877
0.8478239 0.95863426 0.9402877 0.76564324 0.8771068 1.2914858 1.2064792 1.2580369
1.6773012 1.5191201 1.3326536 1.8216336 1.0330087 0.89169633 1.0217568 1.2122809
0.9497784 0.9374192 1.0861039 1.2381843 1.0991573 1.5092838 1.0718217 1.0287588
0.72661793 0.8550474 1.0009549 2.465267 1.151104 0.8560543 1.097523 1.1796927
00000000: 1d18 f93f c114 433f a05f 9b3f 31bc 6f3f
00000010: d80f 553f 1d69 8b3f 7400 9b3f 9563 743f
00000020: 1ead d33f 4a5e ae3f cdb4 863f 0b32 9d3f
00000030: 6d21 8c3f 9e7e 0c40 1bf9 813f 8b4d 873f
00000040: f756 4a3f 2bf8 6f3f 0280 873f 8a98 b23f
00000050: 9990 873f aea1 6b3f 2f82 9a3f 249e 983f
00000060: 618c 4940 823b 983f 1fa4 ab3f a0e2 703f
00000070: 5093 833f 45b1 b03f 4587 493f 98d4 673f
00000080: fd0a 593f 0e69 753f b2b6 703f 3201 443f
00000090: 128a 603f 684f a53f e96d 9a3f 5a07 a13f
000000a0: ceb1 d63f 8772 c23f 6594 aa3f 4a2b e93f
000000b0: a139 843f 3646 643f edc8 823f 052c 9b3f
000000c0: ad24 733f b4fa 6f3f 7405 8b3f d37c 9e3f
000000d0: 30b1 8c3f 3630 c13f 7431 893f 5eae 833f
000000e0: a203 3a3f 63e4 5a3f 4a1f 803f efc6 1d40
000000f0: 6057 933f 6026 5b3f a27b 8c3f 2c00 973f

22.bias f4 [64]
-1.9102771 0.29027703 -0.371505 0.73385227 0.2664912 -0.39056653 -0.66083175 -0.09738184
-1.0042478 -0.45914719 -1.2205644 -2.4709473 -0.4473832 -1.9767028 -1.6685231 -0.4047908
-0.74846804 0.16804884 -1.36704 -1.6680888 0.31109288 -0.4318899 -0.4456195 -1.0695568
-3.8782065 -1.1418394 -0.7142625 0.16519949 -0.70837563 -3.0398684 -0.06395998 -0.2600646
-0.67015046 -0.765231 -0.013252718 0.12276665 -0.74163985 0.07982027 -1.3070519 -0.7086159
-0.7562946 -1.1743537 -0.22202785 -2.822814 0.18449615 -0.4009633 -1.1385397 -0.46890324
-0.11525185 -0.097233474 -0.28839058 -0.48226792 -0.48397228 -1.9286704 0.06502839 -0.54562193
-0.6930691 0.05399247 -0.0899677 -2.1722682 -1.1527854 0.07316114 -0.024170395 -0.6701484
00000000: f683 f4bf 319f 943e e735 bebe bedd 3b3f
00000010: 8971 883e 56f8 c7be 452c 29bf 2170 c7bd
00000020: 318b 80bf 5715 ebbe 743b 9cbf 0024 1ec0
00000030: 690f e5be 9904 fdbf 2a92 d5bf bd40 cfbe
00000040: 9a9b 3fbf ff14 2c3e 2bfb aebf ef83 d5bf
00000050: 9147 9f3e ac20 ddbe 3d28 e4be 3de7 88bf
00000060: 8934 78c0 cb27 92bf e8d9 36bf 0e2a 293e
00000070: 1b58 35bf 348d 42c0 73fd 82bd 3027 85be
00000080: fb8e 2bbf 2ee6 43bf ee21 59bc 156d fb3d
00000090: 1cdc 3dbf cf78 a33d 7a4d a7bf da67 35bf
000000a0: 869c 41bf 3951 96bf 455b 63be fca8 34c0
000000b0: 8fec 3c3e 104b cdbe abbb 91bf 1614 f0be
000000c0: 2909 ecbd 5822 c7bd eea7 93be d2eb f6be
000000d0: 37cb f7be acde f6bf 9b2d 853d e1ad 0bbf
000000e0: fa6c 31bf 3527 5d3d fc40 b8bd 7106 0bc0
000000f0: 798e 93bf 82d5 953d fe00 c6bc d88e 2bbf

22.running_mean f4 [64]
-3.665351 5.0925117 -14.813155 -7.7251573 -1.5555083 -28.452633 -21.35 -15.436611
-22.344944 -2.1743872 -3.4635525 -7.541483 -21.08062 -13.278969 -4.0977077 -19.720257
-8.13075 -7.340378 -10.128537 -1.3332103 -31.298492 -13.154349 -25.290602 -20.268057
-2.0037634 -14.561742 -0.24040054 -10.057435 -26.654991 -2.9029908 -19.465878 -0.7588852
-24.2352 -14.16036 -2.2727594 -15.93518 -12.967013 -25.262604 5.132462 -6.598242
-30.03948 -5.12814 -7.2194443 -5.3219676 -10.856014 -2.9889147 -2.125046 2.7401009
-9.139896 -17.56707 8.792901 -4.602508 -9.062595 -19.45722 -21.800043 -21.615896
-4.6364946 -24.502571 -15.810494 -6.2078695 -9.2252035 -16.112762 -14.1971 -3.1648896
00000000: 1c95 6ac0 dbf5 a240 af02 6dc1 7d34 f7c0
00000010: e51a c7bf fe9e e3c1 cdcc aac1 5cfc 76c1
00000020: 72c2 b2c1 2929 0bc0 d8aa 5dc0 d453 f1c0
00000030: 1ca5 a8c1 a876 54c1 6c20 83c0 16c3 9dc1
00000040: 8d17 02c1 60e4 eac0 7d0e 22c1 a3a6 aabf
00000050: 5063 fac1 3778 52c1 2753 cac1 fb24 a2c1
00000060: a93d 00c0 e5fc 68c1 8f2b 76be 41eb 20c1
00000070: 6c3d d5c1 9aca 39c0 1eba 9bc1 4d46 42bf
00000080: b1e1 c1c1 d690 62c1 e474 11c0 7ff6 7ec1
00000090: e378 4fc1 d019 cac1 213d a440 cc24 d3c0
000000a0: db50 f0c1 b919 a4c0 b005 e7c0 8f4d aac0
000000b0: 3cb2 2dc1 614a 3fc0 c100 08c0 d05d 2f40
000000c0: 043d 12c1 5c89 8cc1 b9af 0c41 bf47 93c0
000000d0: 6400 11c1 63a8 9bc1 7d66 aec1 5bed acc1
000000e0: 2a5e 94c0 4405 c4c1 c9f7 7cc1 dea6 c6c0
000000f0: 6f9a 13c1 f0e6 80c1 5227 63c1 8d8d 4ac0

22.running_var f4 [64]
306.32245 224.9882 322.82236 340.5665 155.33316 286.21417 638.58344 192.44499
467.9926 276.10214 173.35649 78.73817 88.31183 302.84073 90.992676 269.88107
95.47741 179.60692 40.035755 119.49941 281.8883 189.2753 337.69632 109.71467
136.75719 61.63762 327.40063 417.6808 186.50414 27.456573 171.74547 177.1483
129.48436 183.29744 380.561 185.02179 107.42216 320.01416 142.28943 303.36365
408.6924 186.79445 344.2386 138.85077 240.67923 204.7427 102.795 206.62077
106.832436 243.40973 371.84122 489.0461 192.28452 162.30467 190.86656 137.71144
72.21416 206.2423 265.46808 120.0136 114.91243 182.19136 306.372 146.58151
00000000: 4629 9943 fbfc 6043 4369 a143 8348 aa43
00000010: 4a55 1b43 6a1b 8f43 57a5 1f44 eb71 4043
00000020: 0eff e943 130d 8a43 435b 2d43 f179 9d42
00000030: a89f b042 9d6b 9743 40fc b542 c7f0 8643
00000040: 6ff4 be42 5f9b 3343 9d24 2042 b3ff ee42
00000050: b4f1 8c43 7a46 3d43 21d9 a843 e96d db42
00000060: d7c1 0843 ec8c 7642 48b3 a343 24d7 d043
00000070: 0f81 3a43 10a7 db41 d7be 2b43 f725 3143
00000080: ff7b 0143 254c 3743 cf47 be43 9405 3943
00000090: 25d8 d642 d001 a043 184a 0e43 8cae 9743
000000a0: a158 cc43 61cb 3a43 8a1e ac43 ccd9 0a43
000000b0: e2ad 7043 22be 4c43 0a97 cd42 eb9e 4e43
000000c0: 35aa d542 e468 7343 adeb b943 e785 f443
000000d0: d648 4043 ff4d 2243 d7dd 3e43 21b6 0943
000000e0: a66d 9042 073e 4e43 eabb 8443 f706 f042
000000f0: 2ad3 e542 fd30 3643 9e2f 9943 de94 1243

26.weight f4 [64]
1.5774657 1.6026692 1.2625087 1.2608485 1.5487084 1.5831441 1.5541687 1.9350512
1.2100692 1.495485 1.4007044 1.062329 1.646719 1.2015207 1.5335101 1.7359549
2.0175934 1.1955658 1.1314088 1.8018084 1.1344109 1.2222956 1.694835 1.1880419
1.4186847 0.9980887 1.9071895 1.5627654 1.4474511 1.362274 1.3576466 1.4958092
1.4449469 1.1606857 1.4670104 1.9022958 1.3902494 1.4722468 1.7716855 1.659541
2.388276 1.692724 1.5639056 1.19032 1.2736311 1.3886282 1.2379142 1.5540004
1.8705738 2.0086343 1.4661095 1.7377952 2.133794 1.5163713 1.807748 1.3013293
1.049657 1.2121699 1.0540577 1.1214339 1.3916339 1.7263596 1.4296044 1.401267
00000000: 65ea c93f 4424 cd3f e399 a13f 7c63 a13f
00000010: 143c c63f 77a4 ca3f 00ef c63f c2af f73f
00000020: 8ce3 9a3f 0d6c bf3f 484a b33f 66fa 873f
00000030: b0c7 d23f 6ecb 993f 0f4a c43f c533 de3f
00000040: 4020 0140 4d08 993f 01d2 903f a8a1 e63f
00000050: 6034 913f 2f74 9c3f 5af0 d83f c211 983f
00000060: 7697 b53f be82 7f3f c91e f43f b208 c83f
00000070: 1446 b93f ff5e ae3f 5dc7 ad3f ad76 bf3f
00000080: 05f4 b83f 5991 943f ffc6 bb3f 6e7e f33f
00000090: b1f3 b13f 9572 bc3f 97c6 e23f d76b d43f
000000a0: 84d9 1840 2eab d83f 0f2e c83f 685c 983f
000000b0: 5806 a33f 92be b13f f973 9e3f 7ce9 c63f
000000c0: f66e ef3f 778d 0040 7aa9 bb3f 1370 de3f
000000d0: 1590 0840 7418 c23f 4964 e73f f591 a63f
000000e0: 295b 863f 6228 9b3f 5deb 863f 258b 8f3f
000000f0: 0f21 b23f 5af9 dc3f 47fd b63f b85c b33f

26.bias f4 [64]
0.09695922 -0.7713716 -0.3617835 1.301985 -1.261293 -0.037563693 -0.26534116 0.5048973
0.4544601 -0.5584419 1.1259679 -0.1327516 -0.5573041 -1.6575367 -0.30686185 -0.81722397
-0.62423205 0.31537664 1.2671998 -0.3668104 0.34690398 0.13610171 0.15525874 0.34390694
0.057151318 -0.1383784 -0.9609941 0.10607621 -1.2255161 0.668286 -0.3744577 -0.06330659
-0.03851069 -0.26402104 -0.9048223 -0.9568599 0.2211956 -0.1339894 -0.9369471 -0.80615234
-0.71320385 -0.76151824 0.21044058 0.056672283 -0.90467745 -0.59773976 0.6861255 -0.32717136
-2.1425636 0.45363015 -0.26305023 -1.0823834 -0.0735754 -1.9929078 -1.942792 -0.08591798
-0.08740028 0.6944711 -0.0706293 -0.58489376 -0.043028377 -0.06875596 -0.26178896 -0.69211495
00000000: 8e92 c63d 9c78 45bf b03b b9be 72a7 a63f
00000010: 0d72 a1bf 63dc 19bd ccda 87be f340 013f
00000020: ffae e83e 0cf6 0ebf b71f 903f 09f0 07be
00000030: 7bab 0ebf 2a2a d4bf ff1c 9dbe 9735 51bf
00000040: accd 1fbf 0c79 a13e 9a33 a23f 93ce bbbe
00000050: 669d b13e 3f5e 0b3e 26fc 1e3e 9214 b03e
00000060: 8017 6a3d 11b3 0dbe b603 76bf 7c3e d93d
00000070: b6dd 9cbf cb14 2b3f ebb8 bfbe e3a6 81bd
00000080: 63bd 1dbd c42d 87be 6fa2 67bf c5f4 74bf
00000090: 1981 623e 8434 09be c4db 6fbf 0060 4ebf
000000a0: 8794 36bf dcf2 42bf bc7d 573e 3221 683d
000000b0: f198 67bf 7905 19bf eca5 2f3f 0183 a7be
000000c0: c31f 09c0 3642 e83e 85ae 86be 8a8b 8abf
000000d0: b3ae 96bd 9a17 ffbf 69ad f8bf c4f5 afbd
000000e0: ebfe b2bd dcc8 313f 18a6 90bd 99bb 15bf
000000f0: 863e 30bd edcf 8cbd 3409 86be 722e 31bf

26.running_mean f4 [64]
-4.435413 8.819158 -8.389943 -10.076452 -0.28713444 -8.215012 -5.6734004 -13.804649
-7.254198 -6.352101 1.5952598 0.5415387 10.629414 2.0391748 -6.752694 -5.711184
2.4707468 -1.0111661 -10.451722 -6.7935305 6.713329 0.3754738 -9.384511 -11.554734
-3.3421698 -0.7217964 -14.173603 -1.104299 -24.993603 -6.2206516 -0.1513335 -21.838089
-7.1811056 5.3013864 -12.752019 16.303503 -23.544106 -5.906529 -2.851472 -20.460136
-5.3281693 -13.214558 -14.402269 -5.3555794 1.6638973 1.926301 -6.902175 -0.4690872
-8.898612 -22.735987 -3.348943 -13.408535 -11.944073 0.51309794 -2.9708958 -4.600475
2.2867959 1.9407662 -0.47867066 -6.846831 -6.103492 -7.4506764 0.20350347 -2.0539646
00000000: e7ee 8dc0 451b 0d41 353d 06c1 2639 21c1
00000010: 4903 93be b070 03c1 7f8c b5c0 d8df 5cc1
00000020: 6422 e8c0 6944 cbc0 7931 cc3f 48a2 0a3f
00000030: 1412 2a41 d781 0240 1216 d8c0 05c2 b6c0
00000040: b720 1e40 e46d 81bf 413a 27c1 9a64 d9c0
00000050: 97d3 d640 1a3e c03e f526 16c1 31e0 38c1
00000060: 1ce6 55c0 a6c7 38bf 14c7 62c1 ab59 8dbf
00000070: e6f2 c7c1 940f c7c0 2bf7 1abe 68b4 aec1
00000080: 9ecb e5c0 f5a4 a940 4508 4cc1 936d 8241
00000090: 545a bcc1 4902 bdc0 847e 36c0 5cae a3c1
000000a0: 5d80 aac0 d46e 53c1 b26f 66c1 e860 abc0
000000b0: 96fa d43f 0891 f63f 9ede dcc0 332c f0be
000000c0: b760 0ec1 4de3 b5c1 1555 56c0 5c89 56c1
000000d0: ec1a 3fc1 635a 033f 2823 3ec0 1737 93c0
000000e0: dd5a 1240 076b f83f 5214 f5be 3d19 dbc0
000000f0: ce4f c3c0 f16b eec0 3763 503e 2874 03c0

26.running_var f4 [64]
314.91754 154.68408 141.11763 143.66505 72.15503 138.7363 149.07114 439.4061
204.58037 125.860115 198.33751 120.61922 213.93822 82.99515 223.26521 103.713264
359.0311 179.396 159.2149 313.44583 145.75905 145.12427 62.535904 114.48716
333.40512 84.76138 336.2101 310.48657 104.005005 231.08577 304.70175 316.4017
129.81073 138.05084 145.21439 245.31987 198.86497 262.1589 62.227158 260.65857
84.01636 187.33458 179.56947 168.41064 87.721245 241.89293 275.7558 180.80914
91.779564 669.71014 167.69162 80.36265 415.4966 49.751144 83.791725 170.89777
213.07869 108.44503 168.15588 134.54805 97.280495 242.02182 221.82439 81.01119
00000000: 7275 9d43 20af 1a43 1d1e 0d43 41aa 0f43
00000010: 604f 9042 7ebc 0a43 3612 1543 fbb3 db43
00000020: 9394 4c43 61b8 fb42 6756 4643 0a3d f142
00000030: 2ff0 5543 84fd a542 e543 5f43 316d cf42
00000040: fb83 b343 6065 3343 0437 1f43 11b9 9c43
00000050: 51c2 1143 d01f 1143 c424 7a42 6df9 e442
00000060: dbb3 a643 d485 a942 e51a a843 483e 9b43
00000070: 9002 d042 f515 6743 d359 9843 6b33 9e43
00000080: 8ccf 0143 040d 0a43 e236 1143 e351 7543
00000090: 6fdd 4643 5714 8343 9ce8 7842 4c54 8243
000000a0: 6008 a842 a755 3b43 c991 3343 2069 2843
000000b0: 4771 af42 97e4 7143 bee0 8943 24cf 3443
000000c0: 238f b742 736d 2744 0eb1 2743 adb9 a042
000000d0: 91bf cf43 2c01 4742 5d95 a742 d4e5 2a43
000000e0: 2514 5543 dbe3 d842 e827 2843 4d8c 0643
000000f0: 9d8f c242 9605 7243 0bd3 5d43 bb05 a242

31.weight f4 [128]
1.6544008 1.4697366 1.8659639 1.9241538 1.3602043 1.7015016 1.8870629 1.344306
1.4971348 1.3398463 1.5844225 1.5616286 1.5613334 1.6495416 1.7270935 1.4609752
1.5744872 0.5359046 1.0586668 1.3383379 1.6326699 1.5978874 1.2095952 1.35817
1.000018 1.9134302 1.224027 1.371033 1.2663031 2.0539973 1.3810157 1.8509089
1.243451 1.7803665 1.9684483 1.0294611 1.6403872 1.5874414 1.7686746 1.8546066
1.3116643 1.1562258 1.6538898 1.5539023 1.3990668 1.5858256 1.5895411 1.9768665
1.3580153 1.8304663 1.6352016 1.6393502 1.3533485 2.0885122 1.9838002 0.9682075
1.4530125 1.4795321 1.1310459 1.5056661 1.4649979 1.5962354 1.0232408 1.3170521
1.4310608 1.7877815 1.7226903 2.048159 1.5076953 1.4055023 1.9006588 1.8182106
1.3147674 1.3078866 1.377659 1.7143887 1.6597681 1.2013842 1.4065368 1.4580448
1.1307936 1.3108351 1.328302 1.4951512 1.2832452 1.5523549 1.2742251 1.6873521
1.3496029 1.2227428 2.0250897 1.1345628 1.8961875 1.3433741 1.3785999 1.9301573
1.3884311 1.4163256 1.6665864 1.6635199 1.2690837 1.4142455 1.2769339 1.461941
2.062829 1.3425245 1.5898665 1.7508961 1.3747611 1.6469852 1.731913 1.1797148
1.4596328 1.3532157 1.6885916 1.8287795 1.0910318 1.4325179 1.2871389 1.749075
1.0615097 1.9446356 1.8221288 1.6740292 1.2957633 1.420066 1.2549646 1.0352668
00000000: 68c3 d33f 5420 bc3f e8d7 ee3f ac4a f63f
00000010: 2d1b ae3f ceca d93f 478b f13f 3812 ac3f
00000020: 1da2 bf3f 1580 ab3f 5bce ca3f 72e3 c73f
00000030: c6d9 c73f 2e24 d33f 6611 dd3f 3c01 bb3f
00000040: cc88 c93f 0b31 093f 6582 873f a84e ab3f
00000050: 54fb d03f 9387 cc3f 04d4 9a3f 84d8 ad3f
00000060: 9700 803f 48eb f43f ebac 9c3f 027e af3f
00000070: 3816 a23f b174 0340 1fc5 b03f 95ea ec3f
00000080: 6729 9f3f 0de3 e33f 1df6 fb3f 62c5 833f
00000090: 35f8 d13f 4831 cb3f ee63 e23f c063 ed3f
000000a0: 9ee4 a73f 35ff 933f a9b2 d33f 45e6 c63f
000000b0: 9f14 b33f 55fc ca3f 1576 cb3f f609 fd3f
000000c0: 72d3 ad3f b84c ea3f 494e d13f 3ad6 d13f
000000d0: 863a ad3f 2faa 0540 2aed fd3f 72dc 773f
000000e0: 50fc b93f 4f61 bd3f 1dc6 903f abb9 c03f
000000f0: 0d85 bb3f 7151 cc3f 8ef9 823f 2a95 a83f
00000100: 002d b73f 06d6 e43f 1e81 dc3f 0915 0340
00000110: 29fc c03f 80e7 b33f ca48 f33f 20bb e83f
00000120: 4c4a a83f d468 a73f 2157 b03f 1771 db3f
00000130: 4873 d43f f5c6 993f 6609 b43f 36a1 ba3f
00000140: d8bd 903f 72c9 a73f cd05 aa3f 1d61 bf3f
00000150: 6141 a43f 91b3 c63f cf19 a33f 27fb d73f
00000160: cabf ac3f d682 9c3f 129b 0140 5b39 913f
00000170: 46b6 f23f aff3 ab3f f675 b03f 650f f73f
00000180: 1cb8 b13f 284a b53f b452 d53f 38ee d43f
00000190: 5671 a23f ff05 b53f 9272 a33f e220 bb3f
000001a0: 6405 0440 d8d7 ab3f bf80 cb3f 5d1d e03f
000001b0: 2cf8 af3f 69d0 d23f 53af dd3f e500 973f
000001c0: 3fd5 ba3f 2c36 ad3f c523 d83f 7215 ea3f
000001d0: eea6 8b3f bf5c b73f f8c0 a43f b1e1 df3f
000001e0: 8ddf 873f d2e9 f83f 843b e93f 9746 d63f
000001f0: 92db a53f b9c4 b53f aea2 a03f 9f83 843f

31.bias f4 [128]
-0.88061863 -0.6677328 -0.7281018 0.18706828 -1.49461 -1.0407997 0.24533518 -0.044672966
-1.4560713 -0.14520802 -1.139217 -0.7430965 -1.1068704 -0.4925613 -1.1732655 -0.29286456
-0.24447867 -1.6260872 -0.55665046 -0.21174558 -0.11137915 -0.52278954 -0.72757334 -0.53853714
-0.92614657 -0.8971452 -0.13667855 -1.2322065 0.43778318 -0.36681393 -1.3993726 -0.26864284
-1.0881369 -0.7343702 -0.8461992 -0.08907871 -0.77197266 -0.84626734 -0.2558582 -0.6575147
-0.8851291 -0.61829185 -0.53471756 -1.7564683 -0.9596824 0.08589128 -0.8158123 -0.7727135
-0.34882697 -1.4172827 -0.70830905 -1.185817 -1.3086444 -1.4191058 -1.065714 -0.25071943
-0.9094492 -1.0869441 -0.723597 -0.8580975 0.38750806 -1.1400914 -0.0065911543 -0.2025086
-0.6245819 -1.0729413 -0.53458816 -1.2571244 -1.0832186 -1.0211056 -1.0612061 -0.59053993
-1.284995 -0.3463624 -0.8305432 -0.54587597 -0.9265607 -0.22130477 -0.67912734 -1.5991825
0.058345627 -1.3577298 -0.97996753 -0.8398621 -0.8463499 -0.82896143 -0.6653302 -1.3910712
-0.59589416 -0.5918397 -0.52428406 -0.9534776 -0.7906924 -1.0727832 -1.0357376 -0.9379201
-1.8473221 -0.27360377 -0.2098916 -1.1087923 -0.09943746 0.055662725 -0.87675387 0.062086128
-0.90638244 -0.9089942 -0.8326881 -0.9761273 -0.61619925 -0.3265242 -1.345563 -0.36433232
-0.28206715 -0.18814066 -1.0468979 -0.31455544 -1.4142667 -1.5358126 -0.8793012 -1.1829516
-0.6399804 -0.6349684 -1.032179 -1.2257189 -0.60448885 -0.8130348 -1.1271975 -0.60258424
00000000: 3970 61bf 89f0 2abf e164 3abf d48e 3f3e
00000010: 614f bfbf ed38 85bf 2539 7b3e 00fb 36bd
00000020: 8b60 babf 69b1 14be ddd1 91bf 923b 3ebf
00000030: eead 8dbf ff30 fcbe 902d 96bf 58f2 95be
00000040: 9e58 7abe a023 d0bf a580 0ebf d5d3 58be
00000050: c01a e4bd 89d5 05bf 3f42 3abf 92dd 09bf
00000060: f117 6dbf 4fab 65bf 76f5 0bbe f1b8 9dbf
00000070: 1e25 e03e 09cf bbbe a41e b3bf 8e8b 89be
00000080: 1248 8bbf afff 3bbf 83a0 58bf e66e b6bd
00000090: 00a0 45bf faa4 58bf d9ff 82be e252 28bf
000000a0: d297 62bf 6048 1ebf 40e3 08bf f4d3 e0bf
000000b0: bfad 75bf c4e7 af3d 13d9 50bf 8dd0 45bf
000000c0: 7399 b2be 8569 b5bf be53 35bf dac8 97bf
000000d0: a981 a7bf 42a5 b5bf 5169 88bf 4c5e 80be
000000e0: aad1 68bf fc20 8bbf a73d 39bf 47ac 5bbf
000000f0: 7567 c63e 84ee 91bf 9cfa d7bb 6a5e 4fbe
00000100: 99e4 1fbf 2456 89bf c5da 08bf 74e9 a0bf
00000110: e8a6 8abf 97b3 82bf 9ad5 87bf a02d 17bf
00000120: b77a a4bf 6a56 b1be 7b9e 54bf 87be 0bbf
00000130: 1533 6dbf b89d 62be 4adb 2dbf 03b2 ccbf
00000140: d3fb 6e3d 17ca adbf 27df 7abf 3401 57bf
00000150: 63aa 58bf d136 54bf 1453 2abf 9f0e b2bf
00000160: 858c 18bf ce82 17bf 7b37 06bf 1c17 74bf
00000170: d16a 4abf f650 89bf 0d93 84bf 881b 70bf
00000180: 0d75 ecbf cb15 8cbe d3ed 56be e8ec 8dbf
00000190: dea5 cbbd 99fe 633d f172 60bf 064e 7e3d
000001a0: ae08 68bf d8b3 68bf 0c2b 55bf 7be3 79bf
000001b0: 3cbf 1dbf 2e2e a7be 693b acbf c489 babe
000001c0: 1b6b 90be f2a7 40be c000 86bf 690d a1be
000001d0: b106 b5bf 8295 c4bf e219 61bf f56a 97bf
000001e0: c1d5 23bf 4a8d 22bf 711e 84bf 5be4 9cbf
000001f0: c8bf 1abf 0c23 50bf 0248 90bf f642 1abf

31.running_mean f4 [128]
-27.642866 -34.09013 -57.548096 16.380075 -46.111443 -8.648889 -79.337234 -84.07966
-9.716612 16.813385 36.75099 46.63951 -81.195496 -6.132616 -39.930622 -75.91493
-117.53896 24.596788 -92.10302 -6.1375356 -100.09825 38.933277 -10.420766 41.310333
-11.664588 -67.49561 4.3780584 -63.794518 -68.705376 -84.64591 56.77359 17.98467
-8.08652 -75.2443 -18.215292 2.964678 10.60894 83.52361 0.32009068 24.922176
6.2294474 -69.14958 -87.18206 33.6757 -64.70277 -13.175266 -30.69758 -67.32645
-37.30675 -73.6407 -111.68763 13.972202 -67.186104 -30.923737 2.760753 -21.375786
-124.78941 -68.419395 -7.7578154 -101.09457 -25.603754 -30.874279 -28.015493 -43.246998
-110.364204 -78.32103 -67.20982 -10.787051 4.995888 -31.071154 -47.31747 -20.270422
-25.59959 -50.834457 -10.860281 3.5816638 44.25106 5.422924 66.98796 -68.624146
10.090482 -53.39767 -5.1016183 -36.76857 -35.18497 -8.739267 54.175816 3.8127694
2.4414392 -45.16643 -12.287382 -56.490227 72.61217 21.093674 -52.50952 -28.835068
-31.291864 51.46113 57.64768 -73.99096 -69.67239 -33.18626 -8.231416 -18.904978
-5.038854 -90.47795 85.036026 -10.806158 0.4171871 -18.99231 12.307867 -81.699425
9.88063 -37.752594 -13.946593 -29.3305 -27.859268 14.767669 87.555824 -71.04768
-83.70699 -67.68296 -20.082308 7.656451 -62.11836 -26.599737 -20.256516 29.297651
00000000: 9724 ddc1 4b5c 08c2 4031 66c2 650a 8341
00000010: 1e72 38c2 d961 0ac1 aaac 9ec2 c928 a8c2
00000020: 3e77 1bc1 d081 8641 0401 1342 dc8e 3a42
00000030: 1864 a2c2 643e c4c0 f5b8 1fc2 72d4 97c2
00000040: f313 ebc2 39c6 c441 bf34 b8c2 b166 c4c0
00000050: 4e32 c8c2 adbb 1b42 75bb 26c1 c83d 2542
00000060: 27a2 3ac1 c1fd 86c2 0e19 8c40 962d 7fc2
00000070: 2769 89c2 b54a a9c2 2818 6342 9be0 8f41
00000080: 6362 01c1 157d 96c2 ebb8 91c1 49bd 3d40
00000090: 38be 2941 170c a742 ede2 a33e 9e60 c741
000000a0: a257 c740 964c 8ac2 375d aec2 ebb3 0642
000000b0: d167 81c2 e4cd 52c1 a594 f5c1 24a7 86c2
000000c0: 1d3a 15c2 0a48 93c2 1160 dfc2 248e 5f41
000000d0: 495f 86c2 d063 f7c1 2db0 3040 9c01 abc1
000000e0: 2e94 f9c2 bbd6 88c2 0640 f8c0 6b30 cac2
000000f0: 7dd4 ccc1 86fe f6c1 bb1f e0c1 edfc 2cc2
00000100: 79ba dcc2 5ea4 9cc2 6e6b 86c2 c397 2cc1
00000110: 51de 9f40 b991 f8c1 1745 3dc2 d329 a2c1
00000120: f6cb ccc1 7c56 4bc2 b6c3 2dc1 fb39 6540
00000130: 1601 3142 9888 ad40 d6f9 8542 903f 89c2
00000140: 9d72 2141 3797 55c2 7540 a3c0 0413 13c2
00000150: 69bd 0cc2 0ad4 0bc1 09b4 5842 6a04 7440
00000160: 8a40 1c40 6daa 34c2 1e99 44c1 fef5 61c2
00000170: 6e39 9142 d8bf a841 c009 52c2 38ae e6c1
00000180: bd55 fac1 32d8 4d42 3997 6642 5ffb 93c2
00000190: 4458 8bc2 bbbe 04c2 e1b3 03c1 653d 97c1
000001a0: 4b3e a1c0 b6f4 b4c2 7212 aa42 06e6 2cc1
000001b0: 8c99 d53e 40f0 97c1 06ed 4441 1b66 a3c2
000001c0: 0f17 1e41 a802 17c2 3f25 5fc1 dda4 eac1
000001d0: c8df dec1 5f48 6c41 951c af42 6a18 8ec2
000001e0: fb69 a7c2 ad5d 87c2 91a8 a0c1 a601 f540
000001f0: 3379 78c2 43cc d4c1 580d a2c1 9761 ea41
