27ml_rf/model_trained.pth (torch, 724081 bytes, 47 tensors)

1.weight f4 [64, 2, 3]
000000 32 04 20 3f b5 39 d7 3f 9c f7 bc be 60 93 d1 bf
       0.625064 1.6814486 -0.3690766 -1.63731
000010 b5 03 a7 bf 4f 8d 84 bf c3 49 4f 3f 78 14 d7 3f
       -1.3048006 -1.0355624 0.80971926 1.6803122
000020 6e 3b d3 3f 1d 49 06 3e 3f 76 02 3f 22 11 38 3f
       1.6502512 0.13113828 0.5096168 0.7190114
000030 b4 9e d1 bf 6d 8f 4e bf 18 c7 b6 be 8f 39 0c 3e
       -1.6376557 -0.806876 -0.3569877 0.13693832
000040 46 6d 94 3f c7 6d b1 3f b5 16 a0 be 9e a7 60 bf
       1.1595848 1.3861626 -0.31267324 -0.87755764
000050 6f ee 88 3e 69 00 93 3f cf 90 d7 3f 21 b3 c0 3f
       0.2674441 1.14845 1.6841067 1.5054666
000060 d7 cf c7 be df a4 0c 3f 73 b2 8e 3f c3 54 a7 bf
       -0.39025757 0.54939073 1.1148208 -1.3072742
000070 5b 5e dd bf 84 5c d4 bf 15 73 59 bf b8 68 d2 3d
       -1.729442 -1.6590734 -0.84941226 0.1027388
000080 b8 47 65 bf a5 29 aa bf 8e 8b a2 bf 13 ba d3 bf
       -0.8956256 -1.3293959 -1.2698839 -1.654116
000090 00 60 22 bf a7 02 cf 3f e1 71 d3 3f 7a c9 6b 3e
       -0.63427734 1.6172684 1.6519128 0.23026076
0000a0 9f b3 bb be 9b 28 b1 bb 13 e6 3e be ae 57 c0 bf
       -0.36660478 -0.005406452 -0.18642454 -1.5026758
0000b0 d9 3c cf bf 03 2d ac bf 70 fa 6f 3f 15 01 9d 3f
       -1.6190444 -1.3451236 0.9374151 1.2265955
0000c0 a6 e8 d3 bd ba 53 20 3f 48 a2 85 3f b7 aa 2b 3f
       -0.103471085 0.62627757 1.0440149 0.67057365
0000d0 d0 c1 d7 3f 56 ef d1 3f 66 69 c3 3e 31 48 04 bf
       1.6856022 1.6401165 0.3816635 -0.51672655
0000e0 03 be c7 3e 29 bc cf bf 12 85 bc bf 53 d5 d2 bf
       0.39012155 -1.6229297 -1.472811 -1.6471351
0000f0 c3 b8 42 3f d1 35 66 3f 03 ab 03 be a5 5e be 3f
       0.76063174 0.8992587 -0.12858205 1.4872633
000100 92 4f d6 3f 2c 82 26 3f f8 bd cb bf 71 44 98 3d
       1.6743033 0.65042377 -1.5917349 0.07434929
000110 19 6c d8 3f 99 f6 d7 3f ae 99 1c bf 9f f3 86 bf
       1.6907989 1.6872131 -0.61171997 -1.0543097
000120 a9 44 ac 3f 6c ac cb 3f 8a 62 a6 3f ed 06 36 3f
       1.3458453 1.5911994 1.2998822 0.7110432
000130 fd 16 22 be 8b 6a dd be c3 0b 37 be 6c 35 b5 bf
       -0.15829082 -0.43245348 -0.1787558 -1.4156928
000140 e3 34 65 bf 72 49 d8 3f b3 ed cc 3f b2 70 3f 3f
       -0.89533824 1.6897414 1.601004 0.74781334
000150 cf bc 10 3f 51 42 8f bf ba 56 ba bf c3 40 c2 be
       0.565381 -1.1192113 -1.4557717 -0.37940034
000160 1f 37 fa 3d c9 a6 a0 bf 27 5c 37 3f 55 c9 d2 3f
       0.12217545 -1.2550899 0.7162499 1.6467692
000170 83 6c 7d 3f b8 2c f3 3d 8f f7 ae bf 03 12 c0 bf
       0.989937 0.11873764 -1.3669299 -1.5005497
000180 f3 6d d8 3f 82 54 8a 3f 3b 3c 25 3c 24 a3 6e bf
       1.6908554 1.080704 0.010085161 -0.9321768
000190 bb 83 b3 3f eb 83 74 3f d7 20 84 bf ca 5d 79 bf
       1.4024576 0.9551379 -1.0322522 -0.97408736
0001a0 c7 d1 c4 bf 9c 63 a0 3d d3 6f cf bf 24 b0 a0 bf
       -1.5376519 0.07831499 -1.6206001 -1.2553754
0001b0 0e 22 d5 3e ff d1 fa 3d 1d 75 8e 3f ac 2e c2 3f
       0.41627544 0.12247085 1.112949 1.5170493
0001c0 3e 32 04 bf db b1 d4 3f ee 93 c8 3f 40 3d 85 be
       -0.51639163 1.6616777 1.5670145 -0.26023293
0001d0 fc 8d af bf e6 2c d0 bf 1e fd f3 bd dc ad d9 3f
       -1.3715205 -1.6263702 -0.11913513 1.7006183
0001e0 cb a4 8b bd ec 45 b5 be 52 f9 18 bf ec ab ab bf
       -0.06818541 -0.3540491 -0.5975543 -1.3411841
0001f0 fc 80 d3 bf eb 24 d3 bf 3a 76 9d bf b3 ae d5 bf
       -1.6523738 -1.6495641 -1.2301705 -1.6693939
000200 df 12 55 bf e8 51 95 bf fe 21 62 bf 2f 26 68 3c
       -0.8323192 -1.1665621 -0.8833312 0.01416926
000210 21 27 d4 bf ec 45 8e 3e 58 21 ad 3f 57 b5 cb 3f
       -1.6574441 0.2778772 1.3525801 1.5914716
000220 08 1f 77 be 0e 10 b1 bf b8 c8 1f 3f 17 84 c9 3f
       -0.24132931 -1.3833025 0.6241565 1.5743436
000230 d0 36 d6 3f af 34 72 3f a5 e9 89 3f 36 90 08 3c
       1.6735477 0.9461164 1.0774428 0.008335164
000240 0a 36 73 bf b0 e2 b9 bf fb 01 9b 3d 22 b7 ca be
       -0.9500433 -1.4522305 0.07568737 -0.39592844
000250 29 53 cd bf 4c d5 b0 bf 71 ed cb bf 66 2e d5 bf
       -1.6041003 -1.3815093 -1.5931836 -1.6654785
000260 71 fd ec be ca 48 2a 3f 48 47 28 3f e4 ec b5 be
       -0.4628711 0.6651732 0.65733767 -0.35532296
000270 cd c3 ca be f4 6e 90 bf b8 19 94 bf 25 3e 79 bf
       -0.3960251 -1.128386 -1.1570349 -0.9736045
000280 ee f1 33 bf ed 88 d7 bf 2f c4 99 bf ea ed d4 bf
       -0.7029103 -1.6838661 -1.2012995 -1.6635106
000290 0b f4 d3 bf 02 1b c6 3e a0 74 3e bf fa 01 b5 3e
       -1.6558851 0.3869248 -0.74396706 0.3535307
0002a0 14 7c ca bf 0f d9 1c 3e f6 c3 cf 3f aa 52 90 bf
       -1.5819116 0.15317176 1.6231678 -1.1275227
0002b0 a6 99 0f 3f f1 f9 35 3f 1a 20 8e bf b5 8d b2 3f
       0.56093824 0.71084505 -1.1103547 1.3949496
0002c0 e4 ee be be c2 9a e4 be c2 99 dc 3f 7d 27 a2 bf
       -0.37291634 -0.4464932 1.7234423 -1.2668301
0002d0 42 0e 7f 3f 87 c5 a1 be fe b1 a9 3f 98 93 3d 3f
       0.9963113 -0.31596014 1.3257444 0.74053335
0002e0 5c 9a cd 3f a9 b8 87 3f 54 43 1a be ab 84 00 3f
       1.6062732 1.0603229 -0.15064746 0.50202435
0002f0 9b a1 a1 bf 00 00 97 3f 28 6d 79 3f b9 a2 d4 3f
       -1.2627443 1.1796875 0.97432184 1.6612159
000300 7d 5d d5 bf 13 c1 cd bf b7 9a 7b bf 5d 52 84 bf
       -1.6669155 -1.6074547 -0.9828295 -1.0337635
000310 5f b4 8f bf 3a 37 c4 3e 59 e2 dc 3d 57 23 65 3d
       -1.122692 0.38323385 0.1078536 0.055941906
000320 b6 4a b5 bd cd fe d6 3f 4c e5 56 bf 57 82 af bf
       -0.088521406 1.6796509 -0.8394363 -1.3711652
000330 ed a6 8a 3f f3 f3 a9 3f ad f5 ee bb 00 95 d9 3f
       1.0832192 1.3277572 -0.0072924704 1.6998596
000340 9c 72 d0 3f 8f 4b 5b bd 22 80 ed 3e 4c 8b d7 3f
       1.6284976 -0.053538855 0.4638682 1.6839385
000350 29 9a cf 3f 90 96 72 be 5f 27 15 3e e4 82 97 3b
       1.6218921 -0.23690248 0.145658 0.0046237577
000360 a6 24 66 bf ad 15 b9 be 30 e5 5b 3f f5 00 a9 bf
       -0.8989967 -0.3614935 0.8589659 -1.3203417
000370 a2 ed 42 bf 8d 30 dc 3f a6 34 ce 3f 55 11 2b 3d
       -0.7614385 1.7202317 1.6109817 0.041764576
000380 e2 5b dd bf 3d 61 8e 3f 6c a7 96 bd 9f 92 93 bf
       -1.7293665 1.1123425 -0.07356152 -1.152912
000390 d2 72 3e be f1 9c 10 3f f4 32 4c 3f 38 98 55 3f
       -0.18598488 0.56489474 0.7976525 0.8343539
0003a0 7f 11 cb 3f c1 a1 cb 3f 8d be 0a 3c ef 4d 95 be
       1.5864714 1.5908738 0.008468282 -0.2916102
0003b0 b7 43 97 3e d1 1d a9 bf 78 71 da bf 1e 98 fa bd
       0.2954385 -1.3212224 -1.7065878 -0.12236045
0003c0 cf 95 d7 3f 90 a2 c4 3f 0a 23 e7 3d 47 45 7f be
       1.6842593 1.536211 0.1128598 -0.24928771
0003d0 bd 11 33 bf 1f 10 54 bf cc f4 17 3f 8c 3e 31 3e
       -0.6994894 -0.828371 0.59357905 0.17309016
0003e0 52 69 bc 3e 97 95 cd bf ef 37 d0 bf 63 bd d3 bf
       0.36799103 -1.6061276 -1.626707 -1.6542171
0003f0 1a 08 20 3f aa 39 ca 3e cc 44 6e bf 43 2a b7 bf
       0.6251236 0.3949712 -0.93073726 -1.4309772

2.weight f4 [64]
000000 df 84 91 3f f4 7b e0 3f cc 29 d0 3f eb 40 c5 3f
       1.1368674 1.7537827 1.6262755 1.5410436
000010 09 03 cc 3f e7 73 97 3f a6 81 89 3f ad 32 97 3f
       1.5938426 1.1832246 1.074269 1.181234
000020 0b 56 ed 3f 28 3b db 3f 9e e6 be 3f 7c 5b f8 3f
       1.8541883 1.7127428 1.4914129 1.9402919
000030 7f 07 b0 3f 10 db e3 3f 80 b4 6e 3f 2b 16 ce 3f
       1.3752288 1.7801228 0.9324417 1.6100515
000040 95 c3 8b 3f 9a dd 97 3f 0a dc 99 3f c5 cd 03 40
       1.0919062 1.1864502 1.2020276 2.0594342
000050 b3 15 d8 3f ef f7 a3 3f 81 da fd 3f 51 95 9e 3f
       1.6881622 1.2810038 1.9832307 1.2389318
000060 81 79 bf 3f 51 db b0 3f e3 e1 d4 3f 72 41 c1 3f
       1.4958955 1.381693 1.6631435 1.5098097
000070 b6 a4 e2 3f e8 25 95 3f 85 25 95 3f 82 c3 ad 3f
       1.7706516 1.1652193 1.1652075 1.3575289
000080 07 0a cc 3f 90 67 90 3f e4 65 ad 3f ce 90 e0 3f
       1.594056 1.1281605 1.354672 1.7544191
000090 26 16 cd 3f 06 07 52 40 7d 60 b4 3f e3 ff a4 3f
       1.6022384 3.2816787 1.4091946 1.289059
0000a0 9d 2d 81 3f 81 1d d1 3f b2 66 c7 3f 38 71 d0 3f
       1.0092045 1.6337129 1.5578215 1.6284552
0000b0 03 f9 ba 3f 5f ba b6 3f 90 58 89 3f ca 37 dc 3f
       1.4607242 1.4275626 1.0730152 1.7204525
0000c0 95 78 9e 3f 41 85 df 3f 27 49 c8 3f 15 78 cc 3f
       1.2380549 1.7462541 1.5647324 1.5974146
0000d0 89 c6 dc 3f 5a a0 9c 3f 60 4a bd 3f 00 0e d3 3f
       1.7248088 1.2236435 1.4788322 1.6488647
0000e0 ae 74 d8 3f 4d d8 dc 3f 97 4b 94 3f 07 cf d6 3f
       1.6910608 1.725351 1.1585568 1.678193
0000f0 76 2c e4 3f 8d 24 ca 3f 13 94 c5 3f 6c d9 dc 3f
       1.7826068 1.5792404 1.5435814 1.7253852

2.bias f4 [64]
000000 a1 08 02 3f 63 17 ae bf bf 53 cc bd c2 71 95 bf
       0.50794417 -1.3600887 -0.09976911 -1.1675341
000010 a4 ae 77 be 7f 05 cb 3e 05 ba 91 be 3c c2 9b 3e
       -0.24187714 0.3965263 -0.28462234 0.30421627
000020 4a 63 a9 bf 6d 9e 5d 3f 26 06 67 bf f0 8a af be
       -1.3233426 0.86569864 -0.90243757 -0.34285688
000030 49 51 7a 3e 8f a9 99 bf d7 96 b3 3e 62 38 82 bf
       0.2444507 -1.200487 0.3507602 -1.0173457
000040 e2 76 30 3e df 00 b5 3b 18 83 9e be 18 2b fb be
       0.1723285 0.0055237855 -0.30959392 -0.49056315
000050 51 d6 a2 bf 7e 19 66 be 6e 49 17 40 40 e8 5d ba
       -1.2721654 -0.22470662 2.3638568 -0.0008465089
000060 db 5e d1 be c9 57 c9 3e cd 3b a6 bf c8 ae 15 bf
       -0.4089268 0.39324787 -1.2987 -0.5846982
000070 a2 51 f0 be fd 19 18 be 8f 64 3a bd 77 13 fb 3e
       -0.4693728 -0.14853664 -0.045506056 0.49038288
000080 c6 90 0f 3f c4 fe 44 be 50 11 29 3f 71 9f aa bf
       0.5608028 -0.1923781 0.6604204 -1.3329908
000090 fe 0a 14 bf ef 9d 18 bf 78 0d 36 3f 94 9f 12 be
       -0.5782927 -0.5961599 0.711143 -0.14318687
0000a0 e6 b0 e5 3e 66 8b b3 bf 53 5a 46 bf 07 5a 9e bf
       0.44861525 -1.4026916 -0.77481574 -1.2371224
0000b0 1a 3c ee be 02 5e f5 3d b9 af 17 3e c7 ef c4 bf
       -0.4653023 0.11980821 0.14813127 -1.5385674
0000c0 cc ee 73 be aa b5 b8 bf ce e4 8f bf d3 65 81 bf
       -0.23821563 -1.443044 -1.1241701 -1.0109199
0000d0 05 8d b5 bf 0a 07 b7 3d ec 12 9a be e4 d0 29 bf
       -1.4183661 0.089368895 -0.3009256 -0.66334367
0000e0 d4 44 6e bf f7 73 95 bf b2 c7 52 3d 6d 0e b1 bf
       -0.93073773 -1.1676015 0.051459976 -1.3832527
0000f0 62 4e 79 3f b4 c8 88 bf c1 ae 56 bf 82 62 cc 3e
       0.9738523 -1.068625 -0.83860403 0.39918905

2.running_mean f4 [64]
000000 b8 5b 98 3e bb 54 d7 3d 65 4e 8c be 94 6a 89 be
       0.29757476 0.10514208 -0.2740356 -0.26839125
000010 11 39 98 3e da 8a 11 3e 1b 89 ed 3d 27 8f 4d be
       0.29731038 0.14213124 0.115984164 -0.2007414
000020 2d 93 18 be 87 d0 8d 3e ab 98 0f be 2c 9c d4 3a
       -0.14899893 0.27698156 -0.14023082 0.0016220859
000030 ef 84 32 3e aa fd a6 be 47 66 6e ba 95 e5 9d 3e
       0.17433523 -0.32615405 -0.000909422 0.3083922
000040 cd ed 32 3d d4 e7 e3 3a 3f e4 7d bd 92 42 cc ba
       0.043683816 0.0017387816 -0.06198525 -0.0015583804
000050 28 b3 58 3e 56 66 3e bd bf 05 fd 3b 5c 26 8f 3d
       0.21162093 -0.046484314 0.0077216323 0.06989738
000060 73 f5 95 3d 4b b0 69 be 15 bf 69 3d 36 5e 54 be
       0.07322206 -0.22821157 0.057066996 -0.20739064
000070 03 9a 0f 3c c1 34 5d 39 5c f0 a8 bd f5 3d 7f be
       0.008764747 0.00021095855 -0.0824897 -0.24925978
000080 ad 92 cb bd 58 87 e3 3c 6b b4 a7 bd 5b 35 2f 3e
       -0.099400856 0.027774498 -0.08188709 0.17110197
000090 1a 49 18 bc 33 3e a3 3b 21 8c 19 be a5 35 1d 3e
       -0.0092947725 0.00498178 -0.14994861 0.15352495
0000a0 08 60 6d 3e 0d be 9c 3e 3f 70 5d 3e 12 4b 89 be
       0.23181164 0.30613747 0.2162485 -0.26815087
0000b0 2a 73 4e be 4d 80 26 be 95 64 c2 3c f1 ae a3 be
       -0.20161119 -0.1625988 0.023729602 -0.31969407
0000c0 c8 c8 73 be 54 fe 15 be c4 c4 09 be 2f de a1 3e
       -0.2380706 -0.146478 -0.13453966 0.31614825
0000d0 93 8c a3 3e 87 38 75 3e 24 19 9d 3e 88 ad fa bd
       0.31943187 0.23947345 0.30683243 -0.1224013
0000e0 94 16 3a 3e 11 c0 b3 bb ba 55 26 be 64 cd 81 be
       0.18172675 -0.0054855426 -0.1624364 -0.25352013
0000f0 7d b3 9b be 74 f1 0a bd f9 3c 98 be e9 e0 18 3e
       -0.30410376 -0.033921674 -0.29734018 0.14929546

2.running_var f4 [64]
000000 38 a4 94 45 dc 70 8b 45 ee f7 62 45 ab 8e 92 45
       4756.5273 4462.1074 3631.4956 4689.8335
000010 5f ec ac 45 97 a0 92 45 3b 64 f4 44 3a 08 52 45
       5533.5464 4692.0737 1955.1322 3360.5142
000020 27 cb 92 45 f1 da ae 45 cc 87 83 45 6c f4 90 44
       4697.394 5595.3677 4208.9746 1159.6382
000030 d5 d1 5e 45 b8 4c aa 45 18 72 f3 44 f7 fe 95 45
       3565.1145 5449.59 1947.5654 4799.8706
000040 55 1b 30 45 76 e0 93 45 89 f3 28 45 71 ef 9a 44
       2817.7083 4732.0576 2703.221 1239.4825
000050 d2 62 9f 45 f4 1b 84 45 a3 aa 8c 44 d8 6c 89 45
       5100.3525 4227.494 1125.3324 4397.6055
000060 97 96 8a 45 00 91 64 45 7b d8 8c 45 f7 41 9d 45
       4434.8237 3657.0625 4507.06 5032.2456
000070 a8 c4 5b 44 bd f9 5f 44 af f8 57 45 ff 3c 78 45
       879.07275 895.90216 3455.5427 3971.8123
000080 58 4c 97 45 58 ec 2a 44 45 46 81 45 2d c5 5c 45
       4841.543 683.6929 4136.7837 3532.3235
000090 79 d4 52 44 5b ec 7f 44 b8 3d 55 45 ce ff 0c 45
       843.3199 1023.69305 3411.8574 2255.9878
0000a0 c5 0a 47 45 38 2c b2 45 76 9e 69 45 e2 ed ac 45
       3184.673 5701.5273 3737.9038 5533.7354
0000b0 fc 3c 30 45 b2 c4 73 45 48 ef 5f 44 4e 3d 9f 45
       2819.8115 3900.2935 895.7388 5095.663
0000c0 03 5f 4b 45 4d c0 c4 45 e3 73 36 45 a7 fe a0 45
       3253.9382 6296.0376 2919.243 5151.8315
0000d0 80 fd a6 45 94 3a 49 45 36 4d a0 45 dc 04 d8 44
       5343.6875 3219.6611 5129.6514 1728.1519
0000e0 32 8d 9c 45 ee a6 91 45 61 e9 37 45 53 88 6c 45
       5009.6494 4660.866 2942.5862 3784.5203
0000f0 34 73 94 45 13 1c 80 45 8d 0f b4 45 90 db 7a 45
       4750.4004 4099.5093 5761.944 4013.7227

5.weight f4 [64, 64, 3]
000000 29 4f d9 bf 7e b5 37 3f 72 05 f4 3f 03 8e 49 be
       -1.6977283 0.7176131 1.9064162 -0.1968308
000010 f3 71 0d 3f 43 dd 8b 3e 58 fd 00 40 13 31 8c bf
       0.55252 0.27317247 2.0154629 -1.0952476
000020 c3 95 c8 bf 20 0e 87 3f 12 1c 8d be 78 b8 26 3f
       -1.5670704 1.0551186 -0.27560478 0.65125227
000030 ca 6f 4c bf 0b ab 5b 3f 07 fa 8d 3f a1 20 02 bf
       -0.79858077 0.85807866 1.1091927 -0.5083104
000040 44 9c 81 3f 11 ba 2c 3f 55 aa f4 be db 04 c8 3e
       1.0125813 0.67471415 -0.47786203 0.39066204
000050 06 af e4 3e 6c 53 d2 3d 6b 23 d1 bf 7a 11 06 c0
       0.44664782 0.10269818 -1.6338934 -2.0948167
000060 47 aa c3 3e 9b 90 06 3f 78 f7 0b 3f 7f 69 88 bf
       0.3821585 0.525644 0.5467448 -1.0657195
000070 85 b8 cc 3f 77 2e 97 3f c6 63 7f 3d 01 bd cf 3e
       1.5993811 1.1811055 0.06235101 0.40573886
000080 89 78 96 3e e6 e6 8f 3f 39 07 11 3f 78 a7 51 3d
       0.29388836 1.124234 0.56651646 0.0511851
000090 e7 5f b6 bf 91 d4 c1 bc d0 c8 8a 3f 00 c6 ec 3f
       -1.4248017 -0.02366093 1.0842533 1.8497925
0000a0 05 33 0f bf 32 ac 02 bf 83 0d 1b 3f a7 b5 c6 be
       -0.55937225 -0.51044 0.6056749 -0.38810465
0000b0 a2 15 f2 be 20 cf a8 bf d6 ce a2 be 12 59 58 3f
       -0.4728213 -1.318821 -0.31798428 0.8451091
0000c0 c4 68 df bf db ad bb 3d 24 d1 96 3e c7 2b 2f 3f
       -1.7453847 0.0916402 0.29456437 0.68426174
0000d0 15 da 73 3e 9e 1d 8e be 97 d4 27 3e 41 91 eb be
       0.2381366 -0.2775697 0.1638969 -0.46009257
0000e0 7f d0 2f 3e 0e 49 0d c0 4e ea 4a 3f d9 68 b5 bf
       0.17169379 -2.207584 0.7926377 -1.4172622
0000f0 c0 84 f7 3b eb ff 39 3e 2e b2 7c 3e d8 ac b2 3e
       0.007553667 0.18164031 0.24677345 0.34897494
000100 ca 70 b8 be 73 06 40 bf b7 0c d8 3f fc f7 6b be
       -0.3602355 -0.7500984 1.687888 -0.23043817
000110 7f 44 43 3f 40 2b 97 bd 83 f6 9e 3e a5 13 e0 3e
       0.7627639 -0.07381296 0.3104745 0.43764988
000120 60 af a1 3e e0 1c f5 3e 4b 7b 50 3e 5e 2e 05 40
       0.31579113 0.47873592 0.20359533 2.080955
000130 ba 27 e6 bd 7b 6b d9 bf a8 66 36 bd 07 9b 29 3e
       -0.11238046 -1.6985925 -0.044531494 0.16563044
000140 2e 39 8f 3e 89 d8 c9 3f 84 2d 78 bf 91 70 e2 bf
       0.27973312 1.5769206 -0.9694445 -1.7690603
000150 6e a3 b5 be 90 cb 07 3f 8e a9 5f bf f8 65 15 be
       -0.3547625 0.53044987 -0.87368095 -0.14589679
000160 25 a9 21 bf c2 46 f5 be 64 e7 a9 3d b9 9b 6b bd
       -0.6314872 -0.47905546 0.082960874 -0.057521556
000170 c6 db 3a 3e 1f 1d 07 40 96 1b 7e bf 3e 44 0b c0
       0.182479 2.1111524 -0.9926084 -2.1760402
000180 b6 02 b4 3f 0b 54 87 3d 40 6f d8 bf 64 3d 4f 3f
       1.4063327 0.06607827 -1.6908951 0.8095305
000190 24 a8 b0 3e ff 1a 2d 3e d1 82 90 3f a8 b5 85 3e
       0.3450328 0.1690483 1.1289922 0.26115155
0001a0 11 92 81 3e c2 c6 23 bf 88 e6 82 be 9b f0 86 be
       0.25306752 -0.63975155 -0.25566506 -0.26355442
0001b0 48 99 19 3e a8 35 b6 3e f2 48 f4 bf ef 43 8b be
       0.14999878 0.3558781 -1.9084761 -0.27200267
0001c0 9f 5a 02 bf e4 00 23 bf 5f b5 bf 3f 5f ea b0 be
       -0.50919527 -0.63673234 1.4977225 -0.3455381
0001d0 53 19 3c bf e5 0d 8d bf 8b 75 1c 3d 81 38 97 3f
       -0.7347614 -1.1019865 0.038198035 1.1814119
0001e0 46 ab f6 bf d6 76 b6 3c 63 e7 07 40 3f f4 67 bf
       -1.9271019 0.022273462 2.1234977 -0.90607065
0001f0 43 27 ea be 1a 78 dc be 33 c2 48 bf 84 23 6d bf
       -0.4573308 -0.4306038 -0.78421324 -0.9263232
000200 24 94 a3 3f 38 40 9b 3f c3 69 0f be cb 44 65 3e
       1.2779584 1.2128973 -0.14005189 0.22389524
000210 29 32 b6 3e b0 4f fb bd 67 81 30 bf 11 6a 07 40
       0.35585144 -0.122710586 -0.6894745 2.1158488
000220 93 84 35 bf 73 bf d3 bf 8d 8f b9 be 0f 60 50 3e
       -0.7090542 -1.6542801 -0.36242333 0.20349143
000230 47 f5 ee be 1c 43 d9 3f 0c 9b 7d bd 72 08 3d bf
       -0.46671507 1.6973605 -0.061915442 -0.7384101
000240 16 fb 0c 40 a2 27 84 bf 06 d4 ea bf 89 68 7e 3f
       2.202825 -1.0324595 -1.8345954 0.9937826
000250 b4 50 72 be 1f c4 f6 be 8c 4d 82 3f 07 a5 9f be
       -0.23663598 -0.48196504 1.0179915 -0.31180593
000260 51 29 16 bd 2c 71 c1 bf 8e 9c 31 be fb ad 30 3f
       -0.036660496 -1.5112662 -0.17344877 0.69015473
000270 69 9b 8c bf d5 15 96 bf 0e 93 de be bb a3 c2 bf
       -1.0984927 -1.1725413 -0.4347157 -1.5206217
000280 94 31 b6 3d 08 72 f9 3f 1c 74 c2 bf d2 46 59 3f
       0.08896175 1.9487925 -1.5191684 0.8487369
000290 81 02 b1 3f 96 e4 a8 3f 5e 0e 31 3f 64 7d 1f bf
       1.3828889 1.3194759 0.6916255 -0.62300706
0002a0 c9 a0 0f bf 2a f6 ac bc 7f ab 7e 3e 30 9d 81 be
       -0.56104714 -0.021113474 0.24870108 -0.25315237
0002b0 30 97 f2 bd a5 76 6a 3f f3 db 00 40 fb ae 8a be
       -0.11845243 0.9158729 2.0134246 -0.27086625
0002c0 d3 a2 41 bf ec 34 bc 3f 2b 26 44 bf 6f 6f 9c 3e
       -0.75639075 1.470365 -0.7662074 0.30553767
0002d0 5f 6f 07 40 18 ad fa bc 37 b2 0c c0 b7 f4 bf 3e
       2.1161726 -0.030600116 -2.1983774 0.3749139
0002e0 e3 fa 71 be 7c 8b 3d bf 55 04 ba 3f 3b 91 9e bf
       -0.23630862 -0.7404096 1.4532572 -1.2388071
0002f0 aa 2a 02 bf 26 c8 db bf d3 35 1b 3f 5f a6 84 3f
       -0.5084635 -1.7170455 0.60629004 1.0363272
000300 0b cd 96 3f f5 df 48 3f fa 09 59 3f 24 f9 72 3f
       1.1781324 0.7846673 0.8478085 0.9491141
000310 cb 22 fc 3e e6 4a 24 3f d6 39 14 3e 24 98 ab 3e
       0.49245295 0.64176786 0.14475188 0.33514512
000320 15 83 29 bf 93 70 ac 3f 80 7e b2 3f bc c2 15 3f
       -0.6621564 1.3471855 1.3944855 0.58500266
000330 3c c0 80 3e 8c 39 2f bc 36 50 80 3e 42 85 46 3f
       0.25146663 -0.010694873 0.25061196 0.77547085
000340 28 38 0e bd 5b 0e 78 3f fd 75 c6 3f 6e 6b 89 3f
       -0.034721524 0.96896905 1.5504757 1.073591
000350 70 4b b1 3f 36 14 1d 3f 79 3a 38 3f 14 1e 1a 3f
       1.3851147 0.61358964 0.7196422 0.60202146
000360 71 4d 90 3e 7b 9a c1 3e d4 70 f6 3d 8a 06 1e 3f
       0.28184083 0.37813172 0.12033239 0.6172873
000370 c6 94 3e 3e d6 1a 22 3e d5 4d 78 3f da 39 41 3f
       0.1861144 0.1583055 0.9699376 0.754789
000380 5c e8 4b 3f b7 ed d3 3f 3e 28 d9 3f 94 01 a0 3f
       0.7965143 1.655692 1.6965406 1.2500482
000390 03 23 fc 3e 28 d8 8f 3d c8 ec f6 3e 64 29 85 3f
       0.49245462 0.070236504 0.48227525 1.0403256
0003a0 fe 36 56 3f 8c 56 4b 3f 1d 75 70 3f a7 97 37 3f
       0.8367766 0.79428935 0.939287 0.7171578
0003b0 0a e5 01 40 97 92 65 3f d1 d9 fe 3e 8f f2 63 3f
       2.0296044 0.89676803 0.49775556 0.8904199
0003c0 23 61 b4 3f c4 25 06 40 91 6f 94 3f 84 cc 1b 3f
       1.4092144 2.096055 1.1596547 0.6085894
0003d0 8e 28 ac bd 50 1b 80 3f 34 cf d1 3f 20 27 dc 3f
       -0.08406173 1.0008335 1.6391358 1.719944
0003e0 9d 56 a1 3f 8e a0 d2 3f 69 58 d8 3f 42 58 e7 3f
       1.2604557 1.6455247 1.6901981 1.8073809
0003f0 7c 06 a7 3f db 27 63 3f fe d3 71 3f a4 ea 67 3f
       1.3048854 0.8873269 0.944641 0.9059241

6.weight f4 [64]
000000 8c 14 c3 3f 4b 52 f9 3f ea 4b bb 3f 54 41 bb 3f
       1.5240645 1.9478239 1.4632542 1.4629312
000010 b4 77 93 3f fb 09 bf 3f 4b a0 d6 3f 0d 21 ce 3f
       1.1520905 1.4924921 1.6767668 1.6103836
000020 23 e4 a6 3f e3 71 a4 3f 53 40 35 40 a3 84 cb 3f
       1.3038372 1.2847255 2.832051 1.5899853
000030 f0 32 cc 3f bd a6 a3 3f 16 14 a4 3f ac c6 c0 3f
       1.5953045 1.278526 1.281863 1.506063
000040 6f f2 9a 3f d2 93 c5 3f dc d2 c3 3f 80 d8 bb 3f
       1.2105235 1.5435736 1.5298724 1.4675446
000050 1f 3d c5 3f 7a 4f f6 3f 52 bc b7 3f de 5b dd 3f
       1.5409278 1.9243004 1.4354346 1.7293661
000060 91 7b a3 3f ad 9b d4 3f d8 a7 c0 3f e9 51 e7 3f
       1.2772084 1.6610008 1.5051222 1.8071872
000070 2f c7 a2 3f f6 90 d4 3f 34 ce bd 3f 39 de a2 3f
       1.2717036 1.6606739 1.4828553 1.2724067
000080 67 4a c3 3f f7 0a db 3f 81 f9 b4 3f 34 e2 a5 3f
       1.5257081 1.7112721 1.4138643 1.2959657
000090 aa 0c ab 3f b9 a5 b1 3f a3 00 ba 3f 3e f8 c3 3f
       1.336324 1.38787 1.4531444 1.5310133
0000a0 89 cc 98 3f 1b da 86 3f 03 92 cd 3f c8 63 b5 3f
       1.1937419 1.053531 1.6060184 1.4171076
0000b0 31 1d a4 3f 0d d6 96 3f 50 e8 b7 3f ae af bb 3f
       1.2821409 1.1784073 1.4367771 1.4662988
0000c0 39 82 f8 3f 8e ea b3 3f 28 d8 c0 3f 12 a4 ca 3f
       1.9414741 1.4055955 1.5065966 1.583132
0000d0 94 fd b7 3f 1f 91 cd 3f 1a b8 24 40 ef 8a b7 3f
       1.4374261 1.6059912 2.5737367 1.4339274
0000e0 0e 3b d1 3f 43 a7 04 40 b4 c6 ac 3f 64 3f b8 3f
       1.6346147 2.0727088 1.3498139 1.4394345
0000f0 7e 56 aa 3f 68 4c 9f 3f 05 67 e0 3f 8a 4d b6 3f
       1.3307645 1.2445192 1.7531439 1.4242413

6.bias f4 [64]
000000 e5 3f b0 bf b1 01 b4 bf a2 b9 14 bf 61 b8 b7 be
       -1.3769499 -1.4063016 -0.58095753 -0.35882857
000010 ca a5 f5 be 06 54 17 bf d1 43 9d bf 79 5e d5 be
       -0.4797805 -0.59112585 -1.2286321 -0.4167364
000020 cc be 4e bf 59 61 08 bf d0 90 c3 bf 26 62 f5 be
       -0.8075988 -0.5327354 -1.5278568 -0.47926444
000030 6c 9b 0f bf f6 4e a9 be 9e 46 30 bf 20 69 ec bd
       -0.5609653 -0.33068055 -0.68857753 -0.115434885
000040 a1 d8 d4 3f b7 17 a3 bf 10 74 19 bf f3 47 62 bf
       1.662861 -1.2741612 -0.5994272 -0.88391036
000050 85 a1 be bf 47 0a 0d c0 19 44 15 bf a8 ee 00 bf
       -1.4893042 -2.2037523 -0.58307034 -0.5036416
000060 b0 66 b1 be 95 d7 1b bf da 12 88 be 13 5a cc bf
       -0.34648657 -0.6087583 -0.26576883 -1.5964988
000070 b8 3c d2 be 0f b1 7b bf bc ab 94 be bb 52 38 bf
       -0.4106195 -0.98317045 -0.29037273 -0.72001237
000080 49 1b 8d bf e5 96 ad be 50 ac 57 bc e4 76 9c be
       -1.1023952 -0.33904186 -0.013163641 -0.30559456
000090 29 d0 66 bf 97 c9 97 be 5f 54 d0 be 16 1f 39 bf
       -0.9016138 -0.29645988 -0.4068937 -0.7231306
0000a0 7a 17 0a bf 17 c1 af bd 65 2b 2e bf aa 8d 5a bf
       -0.5394207 -0.08581751 -0.68034965 -0.8537241
0000b0 96 f3 9a bf 87 1b bd bf 35 d1 11 bf c3 df 03 bf
       -1.2105587 -1.4774026 -0.5695985 -0.5151331
0000c0 32 b2 96 bf d0 b5 84 bf a4 0b 97 bf 12 ba 31 bf
       -1.1773131 -1.0367985 -1.1800427 -0.69424546
0000d0 5e 50 6c bf 30 d8 9a be 84 32 39 c0 dc 05 84 bf
       -0.9231013 -0.30243063 -2.8937082 -1.0314288
0000e0 bb 08 1f bf 48 6c 00 c0 39 1f 5f bf 85 56 7e bf
       -0.62122697 -2.006609 -0.87157017 -0.9935077
0000f0 4d e5 8d be 72 0a 23 bf 4a 8c 82 bf e7 9f 07 bf
       -0.27714005 -0.63687813 -1.0199063 -0.52978367

6.running_mean f4 [64]
000000 a7 3a 95 40 2c c3 ae 42 fa 5c ba c1 8a 56 5d c1
       4.6634097 87.381195 -23.295399 -13.833628
000010 e1 70 be c1 73 2c 0c c2 cf e8 ee c1 9c 01 ef c1
       -23.805117 -35.043407 -29.863676 -29.875786
000020 93 d6 c6 41 41 18 59 41 55 3a 70 c2 98 9b c0 c1
       24.854773 13.568421 -60.056965 -24.075974
000030 e0 17 cb 41 76 9b be 41 85 7a 3c c1 32 c4 25 c2
       25.386658 23.825909 -11.779912 -41.441597
000040 af f5 8b c2 d5 cc 52 c1 21 5c 85 41 62 b7 b2 c1
       -69.97985 -13.175008 16.669985 -22.339542
000050 24 cf 83 c0 e6 3f 67 c2 8a 96 93 41 79 ab 11 c2
       -4.1190357 -57.8124 18.448505 -36.417454
000060 d1 51 ce c1 da 6f d6 c1 f6 47 a3 c0 d4 43 01 c1
       -25.78995 -26.804615 -5.1025343 -8.07906
000070 37 ed aa c1 04 2c 82 41 c9 c0 cd c1 ed 0f c7 41
       -21.365828 16.271492 -25.719133 24.882776
000080 6f f2 1b 41 a8 70 52 c1 2d af b5 c1 a7 b3 84 c1
       9.746688 -13.152504 -22.710535 -16.58772
000090 d3 d4 d7 41 f5 fe dc c1 6f 02 a3 41 d2 02 b0 41
       26.978918 -27.62449 20.376188 22.001377
0000a0 59 88 f1 c1 39 d2 58 c1 99 2a 11 c2 de 8e df c1
       -30.191576 -13.551324 -36.2916 -27.94476
0000b0 75 e5 30 c2 90 41 35 41 9f 5b c4 c1 ba c4 d3 c1
       -44.22408 11.328506 -24.544737 -26.471058
0000c0 f4 27 f4 c1 f5 e2 09 c2 42 2d 49 42 07 94 c5 c1
       -30.519508 -34.471638 50.294197 -24.697279
0000d0 4a 34 07 c2 ee 5e 86 41 37 eb 98 c2 bc 08 9a 41
       -33.801064 16.796352 -76.459404 19.254265
0000e0 15 4b b1 41 9e 98 8b c2 f7 30 6e c1 13 f3 ab c1
       22.161661 -69.79808 -14.886954 -21.493689
0000f0 1f 1e c7 41 53 20 ae 41 63 35 14 c2 49 a1 b4 c1
       24.889708 21.765783 -37.052135 -22.578753

6.running_var f4 [64]
000000 79 4a 2f 44 44 8c 64 44 57 7b c8 44 56 e9 c9 44
       701.16364 914.19165 1603.8544 1615.2917
000010 18 e5 62 44 3f b0 d5 44 d1 a1 d6 43 18 56 cd 44
       907.5796 1709.5077 429.2642 1642.6904
000020 d0 75 e0 44 95 c3 32 44 85 21 3b 44 71 93 96 44
       1795.6816 715.05597 748.52374 1204.6075
000030 5c 11 0a 45 23 62 8c 44 dc e4 76 44 db 28 75 44
       2209.085 1123.0668 987.5759 980.63837
000040 40 73 2e 44 a9 69 26 44 a8 3e 43 44 82 bc 06 44
       697.8008 665.65094 780.979 538.94543
000050 97 a7 2b 44 a1 0f 12 44 fd 33 5e 44 46 14 0c 45
       686.6186 584.2442 888.8123 2241.267
000060 47 cf a2 44 81 0d 20 45 05 73 c5 44 e4 ef 2d 44
       1302.4774 2560.844 1579.5944 695.7483
000070 fa 7f 23 44 b8 00 bf 43 37 1f 6c 44 5e 75 a7 44
       653.99963 382.0056 944.48773 1339.6677
000080 fa 9c b7 43 ae e5 ef 44 c4 43 92 44 1d 77 be 44
       367.22638 1919.1775 1170.1177 1523.7223
000090 a8 61 01 45 c5 7c 88 44 3a 06 ff 43 94 2a b5 43
       2070.1035 1091.899 510.04865 362.33264
0000a0 53 2a 1d 44 5b 94 d3 44 d3 95 c6 44 2f 9c 0d 44
       628.6613 1692.6361 1588.682 566.44037
0000b0 22 59 48 44 3f 1d d1 43 4e 8b bf 44 51 39 10 45
       801.3927 418.2285 1532.3533 2307.5823
0000c0 95 f0 57 43 b8 41 2a 44 be 96 a3 44 47 dd bb 44
       215.93977 681.02686 1308.7107 1502.9149
0000d0 44 10 06 44 6b 33 8e 43 77 66 23 44 2c a5 bd 43
       536.25415 284.4017 653.601 379.2904
0000e0 a2 8d c0 43 98 cb 24 44 29 01 d7 43 55 8e 93 44
       385.1065 659.18115 430.00906 1180.4479
0000f0 44 09 19 44 70 2d 95 44 02 a3 0a 44 45 ad da 44
       612.1448 1193.4199 554.547 1749.4147

9.weight f4 [64, 64, 3]
000000 69 65 2b 3f 9d 5e bf 3f c6 9a 96 3e 28 6e 16 bf
       0.66951615 1.4950749 0.29414958 -0.58761835
000010 77 05 87 bc 86 b9 05 bf 58 76 14 3f ec a4 b4 3e
       -0.016482098 -0.5223621 0.5799308 0.35282075
000020 c6 38 9e 3f b5 2b 17 3f 30 d1 52 3e 45 0a 9c 3f
       1.2361076 0.59051067 0.20587611 1.2190634
000030 d1 1f 73 3f 69 c8 9d bf 5b 74 81 be 36 4a a4 bf
       0.94970423 -1.2326785 -0.25284085 -1.2835147
000040 2e be ad be ac 5a 0b c0 3d 31 15 c0 2b af 1a c0
       -0.33934158 -2.1774092 -2.3311303 -2.4169414
000050 9c 66 0d c0 4a 71 a7 bd 41 37 dc bf 1a 34 a0 3f
       -2.2093878 -0.08175905 -1.7204362 1.25159
000060 84 dd 65 3f a5 8f a7 bf 77 56 75 be 9b b6 98 bf
       0.8979113 -1.3090712 -0.23958765 -1.1930727
000070 7f 0b 8c bf a4 e7 3a 3e de dd 62 3f c6 4c 10 3f
       -1.0941008 0.18252426 0.8861979 0.56367147
000080 b0 9a 9c bd 75 af 62 3f e1 47 59 3f fc c2 49 bf
       -0.07646692 0.88548976 0.84875304 -0.7881315
000090 eb 3f fd bf 76 ef aa be b3 42 56 bc dc 79 34 3e
       -1.9785131 -0.3338582 -0.013077426 0.1762461
0000a0 4f 59 36 3f a0 47 69 bf 20 79 6b 3e bb 96 20 3f
       0.71230024 -0.91124916 0.22995424 0.62729996
0000b0 85 a0 08 bf 3b bb 09 3f 3c ff 1d 40 fc bd aa be
       -0.53369933 0.53801316 2.4687033 -0.33348072
0000c0 03 a8 5f 3f 96 c2 e7 3f 83 7a 95 3e b3 75 80 3f
       0.8736574 1.8106258 0.29195032 1.0035919
0000d0 fe 2f e5 3f f4 54 14 be 7e 50 17 3f 6a 1c 81 bf
       1.7905271 -0.14485532 0.59107196 -1.0086796
0000e0 18 bc ce 3e 81 34 8b 3f c4 75 8b 3f 6c 06 93 3d
       0.4037788 1.0875398 1.0895314 0.07178959
0000f0 c1 2b ed 3e fb 3d 15 bf 57 c9 97 3f f7 7a c2 3f
       0.46322444 -0.582977 1.1858319 1.5193776
000100 f1 da 1b 3f 42 c9 4f be ae 38 8d be 70 17 3f 3f
       0.60880953 -0.20291618 -0.27582306 0.7464514
000110 6d a2 b4 bd 7a 19 28 bf b1 48 ea 3f 7a 1c 13 40
       -0.08820043 -0.65663874 1.8303434 2.298613
000120 37 80 bc bf 88 42 f3 3d 04 e1 da 3f cf ac cc 3f
       -1.4726628 0.11877924 1.7099919 1.5990237
000130 bf 59 ab 3e 60 0b cc 3e ea 08 d4 3e eb 73 70 bf
       0.33466908 0.39852428 0.4141305 -0.93926877
000140 d8 e4 20 bf 72 c3 78 3f 14 38 8f 3f 0d ae a0 3f
       -0.6284919 0.97173226 1.1188989 1.2553116
000150 bb d2 5c 3f 3b 84 de be 6f eb 0f c0 07 50 35 3f
       0.8625905 -0.4346026 -2.2487447 0.7082524
000160 1b 0b 0b 3f a7 3d 96 3e d0 01 13 3f a2 6b 46 bd
       0.5431382 0.29343912 0.5742464 -0.04844249
000170 67 b9 c6 bf 10 cd 8d bf 87 f1 3c bd 54 85 84 3f
       -1.552533 -1.1078205 -0.046128776 1.0353189
000180 fd 7a 99 3f 9d a6 b7 bf 5d 98 02 3e 11 da 60 bf
       1.1990658 -1.4347721 0.12753434 -0.8783274
000190 81 39 ff bf 04 f4 00 c0 45 ee 51 bf 87 a7 c2 bf
       -1.9939424 -2.0148935 -0.82004195 -1.5207375
0001a0 6f bd a6 be 7b cc 34 3f 13 37 62 3f a7 a1 73 be
       -0.325664 0.7062451 0.88365287 -0.23792134
0001b0 68 18 03 c0 80 1c fb bf 94 46 ff 3e e4 71 ff 3e
       -2.0483646 -1.9618073 0.49858534 0.4989158
0001c0 ac ee a7 bd d4 3f 29 3f 93 15 84 bf 78 08 09 bf
       -0.0819982 0.6611302 -1.0319084 -0.5352855
0001d0 58 03 d9 3e bc 6c a0 3e de af 2c be 97 7b 55 be
       0.42385364 0.31332958 -0.16863963 -0.20847927
0001e0 ca 18 29 3f 18 00 15 be 3f de d2 3f 37 47 22 3f
       0.6605345 -0.14550817 1.6474074 0.63389915
0001f0 e0 9e 61 bf d0 30 ac 3f 97 12 30 bd fc 78 02 bf
       -0.8813305 1.3452396 -0.04298648 -0.5096586
000200 c3 42 c8 3f 6c 96 cf 3e 62 0e 00 3e 00 d3 f5 3e
       1.5645374 0.4054445 0.12505487 0.48012543
000210 10 d5 49 bf 20 7b 5d be 37 1b d6 3f 6c 4a d6 3e
       -0.7884073 -0.21629 1.6727055 0.41853654
000220 39 e5 7c 3f 6b ce a8 3f 5d 5f 1d c0 7d 1f dc bf
       0.98787266 1.3187994 -2.4589455 -1.719711
000230 83 99 0e c0 0c 3d 48 3f 6c 02 d9 bc 9f e1 ac 3e
       -2.2281196 0.7821815 -0.026490413 0.33765885
000240 fe e6 cb 3e d0 b2 f6 3e 71 10 f2 3e 9a f0 f1 3f
       0.3982467 0.48183298 0.4727817 1.8901551
000250 1a f1 62 bf 38 26 34 be 3b e1 6f 3f 6f 24 b9 3f
       -0.8864914 -0.17592704 0.9370305 1.4464244
000260 3f d5 31 bf c9 bd a8 bf 33 5e a7 bf cf e2 9d bf
       -0.6946601 -1.3182918 -1.3075622 -1.2334841
000270 cc a0 b1 bf be de 86 3f e3 07 21 bf 7e 0d 3b 3e
       -1.3877196 1.0536726 -0.6290266 0.18266866
000280 65 00 94 3f a7 ca 9b 3d a6 af 60 3f c4 4d d2 3f
       1.156262 0.07607012 0.8776802 1.6429982
000290 ff 00 9b 3f 6e 76 b8 bd 03 bc 56 be c8 2f 2a 3e
       1.2109679 -0.09006964 -0.20970158 0.1661979
0002a0 e7 19 95 bf 0c ed d5 3c 56 a8 b8 3e 04 4a 2a be
       -1.164853 0.02611401 0.3606593 -0.16629797
0002b0 21 a8 7a 3f 10 aa 19 bf ce 41 ad bd 2a c2 4e 3d
       0.97912794 -0.6002512 -0.08459817 0.050478138
0002c0 a3 1c f6 3e 35 cc e9 bf 1c 65 7b 3e 42 ce 85 3f
       0.48068723 -1.8265444 0.24550289 1.045357
0002d0 4d 64 82 3e 5b b4 e4 bf a1 2c 6c bf 28 16 05 c0
       0.25467148 -1.786754 -0.922556 -2.0794773
0002e0 8f b8 53 3e 63 47 ae 3e 75 ea 0f c0 e5 94 13 c0
       0.20675872 0.3403884 -2.2486851 -2.3059628
0002f0 1c 33 14 c0 e4 14 68 3f 8c 42 c6 3f 73 a0 69 bf
       -2.3156195 0.90656877 1.5489058 -0.9126045
000300 3d 43 b7 3f 99 13 04 c0 46 cb 12 40 f2 a4 7d bf
       1.4317394 -2.0636961 2.2936568 -0.9907981
000310 a7 0c 93 bf 79 3e db bf 6b 97 d8 be 53 78 7d bd
       -1.1488236 -1.712844 -0.42303023 -0.06188233
000320 6e b7 24 be a7 ba e1 bf e2 c3 ce bf 72 0e 12 bf
       -0.16085598 -1.7635087 -1.6153529 -0.5705329
000330 ef c6 2d bf 8f fb 55 bf 86 97 3c bf c3 4f 8f be
       -0.67881674 -0.8358697 -0.73668706 -0.2799054
000340 4e 26 91 3e 04 a4 68 bf 02 00 f3 be 44 60 3c bf
       0.28349537 -0.9087527 -0.47460943 -0.7358439
000350 0c 5b ff be 91 a6 ae bd 66 d7 87 3f de 05 94 3e
       -0.4987415 -0.08527864 1.0612609 0.28910726
000360 18 ce eb be f1 b4 41 3f bb 42 67 be 90 ce 36 be
       -0.46055675 0.7566672 -0.2258405 -0.17852235
000370 60 0e 45 3f 2b df ad bf 14 ca 8f bf 6b ab 23 3f
       0.7697506 -1.358373 -1.1233544 0.6393344
000380 fd 4d 80 bf 70 7e 9d be 22 0f a1 be 93 1b db 3e
       -1.00238 -0.30760527 -0.31456858 0.42794475
000390 1f d7 2e bf 7e 8e aa 3f a3 67 15 3e c3 57 40 be
       -0.68297 1.3324735 0.14590316 -0.18783478
0003a0 96 c9 ad 3f 51 2c 41 bf cb 08 11 3f 34 b6 8f be
       1.3577144 -0.75458246 0.5665404 -0.28068697
0003b0 3c 23 07 40 5e 4a 03 bf 2f 23 11 bf f1 7b 7e 3b
       2.1115255 -0.5128535 -0.5669431 0.00388312
0003c0 da b3 cd 3e ae 42 13 c0 7e ad 64 3c 2a 30 cb 3f
       0.40176278 -2.3009448 0.013957379 1.5874074
0003d0 8c ff c4 3e 1c 71 1b 40 81 b7 a2 3f 30 4d d0 3f
       0.38476217 2.4287786 1.2712251 1.6273556
0003e0 b6 1c f3 bf 9c d1 79 3f b4 40 fe be a7 fc b1 3f
       -1.8993137 0.97585464 -0.4965874 1.3905228
0003f0 c0 7d 83 3f 8b e1 1c c0 a7 87 b0 3d 36 75 be bf
       1.0272751 -2.451266 0.08619624 -1.487952

10.weight f4 [64]
000000 50 ad 95 3f b3 cb 65 3f 1c b4 38 3f 95 29 ce 3f
       1.1693516 0.89763945 0.72149825 1.610644
000010 6b 15 70 3f f1 21 a7 3f c9 58 64 3f 4f 27 d5 3f
       0.9378268 1.3057233 0.89197975 1.6652621
000020 04 bd 8f 3f 05 97 a1 3f 17 11 e0 3f 20 e9 da 3f
       1.1229558 1.2624213 1.7505215 1.7102394
000030 18 80 c3 3f 50 d4 bb 3f 94 67 d5 3f 00 99 ab 3f
       1.5273466 1.4674168 1.6672235 1.3406067
000040 d5 33 71 3f 7d 18 b0 3f 92 1e a2 3f 60 68 85 3f
       0.94219714 1.3757473 1.2665579 1.0422478
000050 8f 03 61 3f 9b fb 8b 3f 89 ba e8 3f 40 10 cd 3f
       0.87896055 1.0936159 1.8181926 1.6020584
000060 c2 50 d8 3f 87 4e cf 3f c5 d9 8e 3f a4 23 92 3f
       1.6899645 1.619584 1.1160208 1.1417127
000070 cd c2 9e 3f 2a 1d 9f 3f 25 e1 d7 3f 09 8c ca 3f
       1.2403198 1.2430775 1.6865584 1.5823985
000080 69 e0 d5 3f d7 db 71 3f 15 0b da 3f 39 07 75 3f
       1.670911 0.94476074 1.7034632 0.95714146
000090 4b a9 ed 3f b4 7e c2 3f 40 1a 98 3f b0 85 aa 3f
       1.8567289 1.5194917 1.1883011 1.3322048
0000a0 29 a8 92 3f 49 7c b3 3f ed 6f b5 3f fa d2 e8 3f
       1.1457568 1.4022304 1.4174782 1.8189385
0000b0 e7 76 cb 3f c2 68 ab 3f 52 17 b9 3f 06 b4 e1 3f
       1.5895661 1.3391345 1.4460242 1.7633064
0000c0 a8 7e 8d 3f 0e f6 70 3f e3 35 d5 3f 36 d2 91 3f
       1.1054277 0.9412545 1.665707 1.1392276
0000d0 ef 14 c7 3f 49 b2 cb 3f 0e 12 d0 3f 54 b5 a4 3f
       1.5553263 1.5913783 1.625551 1.2867837
0000e0 2a 91 b9 3f 19 f9 98 3f e0 97 8b 3f 5d fc 85 3f
       1.4497426 1.1951019 1.0905724 1.046764
0000f0 30 09 40 40 1d ac a1 3f ec 3c ba 3f 57 ad de 3f
       3.0005608 1.263065 1.4549842 1.7396649

10.bias f4 [64]
000000 17 bb e2 bf d8 91 40 bf e5 36 c9 be 57 14 51 bf
       -1.7713345 -0.7522254 -0.39299694 -0.8167166
000010 e9 49 32 bf 03 3d 13 bf fe 6b 22 bf dd 98 10 c0
       -0.6964403 -0.5751497 -0.63446033 -2.25933
000020 b7 49 6e bf 50 91 2c bf 24 e3 8a bf e0 13 c8 bf
       -0.9308123 -0.6740923 -1.0850568 -1.5631065
000030 e3 6b c1 bf a1 7e 83 bf bd b2 75 bf b0 cd aa be
       -1.511105 -1.0273019 -0.9597586 -0.33360052
000040 61 68 99 bf c2 cf 94 bf d5 b9 9c bf f6 83 7d bf
       -1.1984979 -1.1625903 -1.2244211 -0.9902948
000050 69 3f ca be bd b5 26 bf d1 8d 38 c0 b4 27 d2 bf
       -0.39501503 -0.6512106 -2.8836558 -1.6418366
000060 ad 97 bb bf d2 a3 b2 bf 40 11 ae bf 47 d5 de be
       -1.4655663 -1.3956244 -1.3599014 -0.43522093
000070 8a 47 94 bf cc d1 b8 bf d5 7c c7 be 48 aa c6 be
       -1.1584332 -1.4439025 -0.38962427 -0.3880179
000080 19 ee 7a be 31 ec 02 bf 7c 1e 89 bf 56 01 5b bf
       -0.2450489 -0.5114165 -1.0712428 -0.85548913
000090 8b e7 83 bf 3e 8c b4 be eb 27 87 bf e0 f4 45 bf
       -1.0305036 -0.35263246 -1.0559057 -0.77326775
0000a0 32 a3 af bf 87 21 5c bf 71 25 0a bf cd fb e4 bf
       -1.3721678 -0.8598866 -0.5396338 -1.7889344
0000b0 02 97 ed bf 8f 9e 79 bf f1 de a1 bf 75 c7 aa bf
       -1.8561709 -0.97507566 -1.2646161 -1.334212
0000c0 c6 76 27 bf d0 55 02 bf 88 ca 6c bf f8 ce ba be
       -0.6541561 -0.5091219 -0.9249654 -0.3648603
0000d0 95 5b 9c bf 64 c6 8b bf 87 3a 61 bf cd b3 e8 bf
       -1.2215449 -1.0919919 -0.8797993 -1.8179871
0000e0 50 cc ae bf cb a8 a3 bf 85 e9 82 bf e9 d4 db be
       -1.3656101 -1.2785887 -1.0227515 -0.42935875
0000f0 90 bd 3e c0 ab 8d 18 bf 50 83 9d bf ac 19 07 c0
       -2.98032 -0.5959117 -1.2305698 -2.110942

10.running_mean f4 [64]
000000 37 88 56 3f a6 84 d6 c0 dc b7 c4 c0 62 ad e6 c1
       0.838016 -6.7036924 -6.147444 -28.83466
000010 20 b6 79 c1 00 66 43 c0 6a 0a a7 c1 9f 43 04 40
       -15.606964 -3.0531006 -20.880085 2.0666273
000020 64 c9 cf c1 31 2b 07 c1 b3 3c 7d bd a2 a0 36 c1
       -25.973335 -8.448045 -0.061825465 -11.414217
000030 8e 3e 70 bf 60 64 03 c0 cf 4b e5 c1 a7 b4 4f c1
       -0.9384545 -2.0530014 -28.662016 -12.981605
000040 9f 02 37 40 0a 89 48 41 ef 6d 3e c1 49 44 02 c1
       2.859535 12.533457 -11.901839 -8.141671
000050 31 e0 62 c1 03 b3 30 c1 a5 73 a5 41 e9 c4 74 c1
       -14.179734 -11.043704 20.681467 -15.298074
000060 a3 c8 59 c1 e5 70 78 c1 59 92 d1 c0 6c 30 b1 3f
       -13.611484 -15.527562 -6.5491147 1.3842902
000070 4e 57 ee c0 54 6d a9 bf 5b ea d7 c0 21 54 71 c1
       -7.4481573 -1.3236489 -6.747358 -15.083039
000080 52 64 08 c2 5c 6f 61 c1 ed c4 a3 c1 9b 9f 2e c1
       -34.09797 -14.089687 -20.471155 -10.913966
000090 1f ef 81 c1 09 01 d6 c1 58 4b ec c0 44 b2 0b 41
       -16.241758 -26.750505 -7.384197 8.731022
0000a0 c2 2e 8b 40 26 eb 70 c1 7c 24 18 c0 9a 46 08 c1
       4.3494577 -15.057409 -2.3772268 -8.517237
0000b0 ae 05 10 c1 0e c8 6e c0 8b 3a f8 3f 3a 7a 8d c1
       -9.001387 -3.7309604 1.9392866 -17.68468
0000c0 ad 54 88 c1 55 dd bb c0 bd 8b 8b c1 bf 1a 35 41
       -17.041346 -5.870768 -17.443232 11.31903
0000d0 41 11 b7 c1 c0 e5 65 c1 d9 2a d8 c1 98 d7 db bf
       -22.883425 -14.368591 -27.020922 -1.7175169
0000e0 d9 9d 9f c1 ef 06 57 3f b7 7f 43 c1 2c 8d 34 c1
       -19.952074 0.83994955 -12.21868 -11.284466
0000f0 08 9b 95 c1 b1 53 07 c1 b3 f9 00 c1 18 36 92 c1
       -18.700699 -8.457932 -8.060962 -18.276413

10.running_var f4 [64]
000000 f3 85 63 43 cd 6c 39 43 31 48 80 43 ff 49 43 44
       227.52324 185.425 256.564 781.1562
000010 13 fc cf 43 4d ac 22 44 4c 17 af 43 bc 50 c5 42
       415.96933 650.6922 350.182 98.657684
000020 c9 b8 20 43 2f 12 91 43 6a ee 0a 44 db 91 00 44
       160.72182 290.14206 555.7252 514.279
000030 12 8b 18 44 52 84 1f 44 db 07 1b 44 57 55 20 44
       610.173 638.0675 620.12274 641.33344
000040 87 15 21 43 a1 56 05 44 09 10 ce 43 1b bc 1e 43
       161.08409 533.3536 412.12527 158.73479
000050 2c 06 90 43 b1 5b 13 44 ad 43 84 43 9c 0d 12 44
       288.04822 589.4327 264.52872 584.21265
000060 0e cf 12 44 22 f9 ed 43 18 d0 ea 42 e8 a5 92 43
       587.2352 475.94635 117.40643 293.29614
000070 d5 ac 89 43 8f 10 55 43 39 70 ea 43 2a 33 e3 43
       275.35025 213.06468 468.87674 454.39972
000080 26 e3 c9 43 da 3f e3 43 3c e6 4a 44 7a c4 3d 43
       403.7746 454.49884 811.5974 189.76749
000090 2a 3c 4f 44 1d d9 01 44 63 fc 6a 43 aa ee eb 43
       828.94006 519.3924 234.98589 471.86456
0000a0 37 4d dd 43 91 a2 2e 44 4b 02 e8 43 d1 0c 06 44
       442.60324 698.5401 464.0179 536.20026
0000b0 6b ac 12 44 f0 f0 0b 44 d4 d7 05 44 ba 6b 2c 44
       586.69403 559.76465 535.3723 689.6832
0000c0 cb 21 f3 43 62 d3 e2 43 ad 27 ab 43 15 40 0b 44
       486.264 453.65143 342.30997 557.0013
0000d0 f8 66 20 44 f5 8d 19 44 2e 0a a0 43 f8 21 89 43
       641.6089 614.2181 320.07953 274.26538
0000e0 58 ef 2d 44 10 81 b3 43 73 ae 5a 43 43 fb 25 44
       695.73975 359.0083 218.68144 663.92596
0000f0 70 22 95 43 16 c7 53 43 31 af 02 44 ae 7f 09 43
       298.26904 211.77768 522.73737 137.49875

13.weight f4 [64, 64, 3]
000000 f0 44 0a 3f 7e ef 96 be 7b cb 23 3f 3d d6 fa 3e
       0.5401144 -0.29479593 0.6398236 0.48991576
000010 e1 ad 09 c0 4d a5 34 bf e0 ce 1b 3f 4a 1a b3 bf
       -2.1512377 -0.7056473 0.6086254 -1.3992398
000020 18 61 4d bf ac d2 c9 bf a5 35 3a bf 59 aa 66 bf
       -0.8022628 -1.5767417 -0.72738105 -0.9010368
000030 54 52 45 bf b7 db 96 bf 1f 8f a1 bf fa a6 d6 3e
       -0.7707875 -1.1785802 -1.2621802 0.41924268
000040 86 4c 0c c0 0b d3 a6 bf ad 44 31 bf 38 e9 01 c0
       -2.1921706 -1.3033155 -0.69245416 -2.0298595
000050 1c ca cd bf 2b eb 93 bf 69 b3 3c bf 56 f8 5d 3d
       -1.6077304 -1.1556143 -0.7371126 0.05419191
000060 1f ba e0 3c 39 3c d6 bf 51 bd a4 bf de bc 3e 3f
       0.0274325 -1.6737128 -1.2870275 0.7450694
000070 e5 d4 12 c0 67 08 52 bf b6 c7 44 3f 75 44 99 be
       -2.294244 -0.8204407 0.76867235 -0.2993504
000080 9b ed 24 3e 0a 1c a4 be f8 aa 67 bd e4 f4 ed 3e
       0.16106264 -0.32052642 -0.056559533 0.464759
000090 cd 51 d5 3c 74 0b 27 bd e3 2c 2c 3f d6 b2 35 be
       0.026039982 -0.040782407 0.6725599 -0.17744002
0000a0 3e 88 91 bf db 5f 65 be 05 fa 73 3f 99 61 57 3e
       -1.1369703 -0.22399847 0.95303375 0.21033324
0000b0 1d c1 8f 3e c1 5a 02 bf be 5c 40 40 07 d2 88 3f
       0.2807702 -0.5091973 3.0056605 1.0689095
0000c0 2e f6 bc bf bd da fd 3e 09 76 25 be cf e3 10 bf
       -1.4762628 0.49580947 -0.16158308 -0.5659761
0000d0 5f 71 6d bf 33 e7 2a bf 26 af 43 be 1c af b5 3e
       -0.92751116 -0.6675903 -0.19109783 0.3548516
0000e0 e3 89 12 bf a9 95 cc be 79 92 ba 3f af 12 fb be
       -0.5724165 -0.39957932 1.457595 -0.49037692
0000f0 13 57 72 3f ea 0a 13 c0 dd 6e 0d c0 79 ca 8f 3e
       0.94664115 -2.2975411 -2.2098916 0.28084162
000100 38 23 e6 bf 23 d8 ba bf db 44 ce be 0d 52 03 c0
       -1.7979498 -1.459721 -0.40286908 -2.051883
000110 4c 85 81 bf d6 5a 7b 3f 0f 89 87 bf 53 de d7 be
       -1.0118804 0.9818548 -1.0588702 -0.42161807
000120 1a 32 96 3e e3 2e f2 3d 40 33 21 3e 24 64 a6 3f
       0.293351 0.11825349 0.15742207 1.299931
000130 a5 05 ff 3e 70 bf 85 3f de 1e 05 bf b4 94 b8 bf
       0.49808994 1.0449047 -0.52000225 -1.442038
000140 6b 1c dc be d9 34 98 be 92 42 f8 3e f9 eb 97 3e
       -0.4299043 -0.2972782 0.4848829 0.2967222
000150 d7 85 82 be cb c7 1e 3f c7 bd d6 be d2 96 0f 3f
       -0.25492737 0.6202361 -0.41941664 0.5608951
000160 de 72 71 bf 68 04 1e be 6c 0e d9 3f a4 12 1c 40
       -0.943159 -0.15431368 1.6957526 2.4386377
000170 0c 68 29 3f 95 9e c8 bd 24 a5 fe 3f 14 51 37 40
       0.6617439 -0.09795872 1.9894147 2.8643236
000180 89 1f e0 3e d0 a8 56 be 71 ea 6c 3e 39 98 81 bc
       0.4377406 -0.20962834 0.23136307 -0.015819656
000190 55 32 99 bf 97 36 d0 be 5a 0f 1a be 1e 55 88 bd
       -1.1968485 -0.4066665 -0.15044919 -0.0665686
0001a0 4e 3d 88 bd 72 5d e9 3c 98 e5 e7 bf 9f 56 0d 3f
       -0.06652318 0.028486941 -1.8116941 0.552103
0001b0 41 a8 a9 be 2b 91 37 3f ad 28 d5 3e 58 fd 34 bf
       -0.3313618 0.71705884 0.41632596 -0.7069907
0001c0 dc 1d 44 40 22 a8 b2 3f c8 25 26 bf 7f a2 64 3e
       3.0643225 1.395756 -0.649014 0.22327612
0001d0 8a 19 95 bf ad 30 40 be 58 17 d0 bf 92 6a 0d 3f
       -1.1648419 -0.18768568 -1.6257124 0.5524074
0001e0 1f 3f 86 be 0c eb 81 be fe bd 67 bf 24 d6 52 3e
       -0.26220033 -0.2537464 -0.9052428 0.205895
0001f0 e4 2a 34 bf e4 46 7c be 4d f3 d4 3e fa fd cc 3f
       -0.70377946 -0.24636418 0.41591874 1.6015007
000200 3f 68 a5 3f 02 c9 13 3d b4 1f 8b be 37 0a 69 bc
       1.2922438 0.036080368 -0.27172625 -0.014223627
000210 06 0b 6c be 61 07 8d bf 94 63 99 bf 02 d3 b3 3f
       -0.2305108 -1.1017877 -1.1983514 1.404877
000220 b5 d5 96 3f 49 2b 07 3f 19 b6 d5 3e e5 a3 26 3f
       1.1783968 0.5280042 0.41740492 0.65093833
000230 b7 ec 92 3f 93 8f dd bd 97 d9 af bf 7e 36 ca be
       1.147849 -0.108184 -1.3738278 -0.394947
000240 10 39 d2 bf c8 2a 8d 3f 28 50 19 3e 4d 97 c7 be
       -1.6423664 1.1028681 0.14971983 -0.3898262
000250 70 72 37 c0 87 cd b8 bf 1a aa e2 3f 3e d2 3a 40
       -2.8663597 -1.4437722 1.7708161 2.9190822
000260 2e 55 4f 3f de 33 d6 3e c5 c0 ca bf 47 2b 7f bf
       0.8098935 0.41836447 -1.5840079 -0.9967541
000270 4c e7 60 3e 24 ff c6 3f e7 c6 96 3f bd de 9c be
       0.21963233 1.5546613 1.177945 -0.30638686
000280 dd 95 ac 3f e5 b3 f6 3f a1 ab 08 bf 78 5f 97 3d
       1.3483235 1.927365 -0.53386885 0.07391256
000290 8d 43 ca 3e b6 82 9f 3e 0d 1e 2e 3f b1 6f ed 3e
       0.39504662 0.31154412 0.68014604 0.46374276
0002a0 f4 5b 68 be f4 7c 1e c0 03 81 06 bf 60 c6 a4 bf
       -0.22691327 -2.4763765 -0.52540606 -1.2873039
0002b0 77 8b 4d bf 62 de 93 be 2c 8a c9 bf b6 f6 be 3e
       -0.8029093 -0.28880602 -1.5745292 0.372976
0002c0 b5 46 bc bc 88 83 11 be 8d d4 c3 bf 8d c5 10 bf
       -0.022982934 -0.14210331 -1.529924 -0.5655144
0002d0 75 86 30 3e eb fe ea be 29 52 89 be 5d 83 95 bf
       0.17238791 -0.45897612 -0.26820496 -1.1680714
0002e0 02 6d c8 bf 37 3f 2a c0 19 cf b1 3d e2 51 8e 3f
       -1.5658267 -2.6601083 0.08682079 1.1118739
0002f0 cf 0c 11 3f b6 88 d2 bf 63 1d 41 c0 af 31 30 c0
       0.5666017 -1.6447971 -3.0174186 -2.7530324
000300 1b bc 8e 3e dc 38 c3 3f a2 6c 7b 3f 6a a1 43 3e
       0.27877888 1.5251727 0.98212636 0.19104543
000310 64 5c f7 3d 51 64 69 3e 23 71 8b 3e ec 23 f0 3e
       0.12078169 0.22792174 0.27234754 0.46902406
000320 02 8e 40 3e 16 6f 9b 3e d1 97 42 bf d2 44 b4 3e
       0.18804172 0.3035819 -0.76012903 0.35208756
000330 11 68 8b 3e 21 3d 81 3e dc a2 e1 bb cc da 99 3e
       0.27227834 0.2524195 -0.0068858694 0.3004974
000340 3d 5a ad 3f 11 d2 6b 3f 89 d8 57 bf 67 23 01 bf
       1.3543164 0.9211741 -0.8431478 -0.50444645
000350 b7 ff 00 3d da 2e 71 3e 91 bc 9c 3d ef 04 1d be
       0.03149387 0.23553029 0.07653154 -0.15333913
000360 bc 34 4a 3c 54 b6 48 3e f6 64 de 3e ec 29 2e bd
       0.012341674 0.19600803 0.43436402 -0.04252045
000370 56 37 dd be f7 2d 6d 3e 91 b7 54 bf 57 46 44 c0
       -0.4320628 0.23162065 -0.830926 -3.0667932
000380 31 b8 05 c0 f6 56 31 3f 52 08 9d 3f f3 73 cc be
       -2.0893672 0.69273317 1.2268164 -0.39932212
000390 91 39 db 3e 7f b6 3e c0 cf c2 89 bf d5 84 2f 3e
       0.42817357 -2.9798887 -1.0762576 0.17140515
0003a0 cb 51 30 c0 c9 aa 2c be f9 ff 62 bf d1 a6 ef bf
       -2.7549922 -0.16862024 -0.88671833 -1.8722783
0003b0 0a f3 95 3e fa 4a cf bf 43 82 6f 3d 3f 3a 86 be
       0.29286987 -1.6194756 0.058473837 -0.26216313
0003c0 57 8b 8c be cb c6 97 3e a2 eb 82 3c cd 5b ad be
       -0.27450058 0.29643854 0.0159815 -0.338591
0003d0 08 0d 85 3e a4 44 5a bc 97 8d 3a 3f 39 91 a8 3f
       0.25986505 -0.013322029 0.728723 1.3169318
0003e0 a1 e6 6a be 9b d1 a5 bd c8 b4 c8 3e 18 76 29 3e
       -0.2293954 -0.0809662 0.39200425 0.16548955
0003f0 9d af 89 bc e5 99 3b be 27 9d 06 bf 4c ee 0d bf
       -0.016807372 -0.18320425 -0.52583545 -0.5544174

14.weight f4 [64]
000000 39 71 94 3f 40 e3 cc 3f 26 d0 96 3f 46 c5 a1 3f
       1.1597053 1.6006851 1.1782272 1.2638328
000010 3a bd c3 3f 17 70 cc 3f e5 96 98 3f e2 c4 4f 3f
       1.5292122 1.5971707 1.1921049 0.81159794
000020 3c e5 7f 3f 27 13 80 3f 29 d8 c7 3f 26 0c a5 3f
       0.9995916 1.0005845 1.5612842 1.2894332
000030 6d 6b 4c 3f 2b 4e 90 3f 74 ab 8f 3f d5 57 87 3f
       0.7985142 1.1273855 1.1224198 1.0573679
000040 5e b2 cf 3f 43 0a 83 3f 0b 4d d8 3f 96 a1 88 3f
       1.6226308 1.0237507 1.6898512 1.0674312
000050 4c 3e c5 3f 5b 18 9d 3f 83 53 81 3f 48 d4 2d 3f
       1.5409636 1.2273058 1.0103611 0.6790204
000060 eb ba 6d 3f 2a a7 a0 3f 77 59 71 3f 3c 92 94 3f
       0.9286334 1.2551014 0.9427714 1.1607127
000070 1d c8 b9 3f 1b 54 9c 3f 62 b8 6b 3f 32 0a de 3f
       1.4514195 1.2213167 0.9207822 1.7346861
000080 f8 b4 b1 3f 90 5a 5b 3f 3d e8 8a 3f 1a d0 8c 3f
       1.3883352 0.8568506 1.0852123 1.1001008
000090 ee 43 81 3f 36 68 c2 3f 50 a6 ff 3f 9a 89 46 3f
       1.0098855 1.5188053 1.997263 0.77553713
0000a0 16 67 63 3f 8c 3a c7 3f ae 41 39 3f 7f 49 b6 3f
       0.8882917 1.5564742 0.72365844 1.4241179
0000b0 01 55 72 3f 06 38 c4 3f 65 9c 87 3f 66 1b b5 3f
       0.94660956 1.5329597 1.0594603 1.4148986
0000c0 3a 76 e0 3f d0 79 ce 3f 3b 81 c8 3f db 3d 34 3f
       1.753608 1.6130924 1.5664438 0.70406884
0000d0 1d cc 9a 3f 6c df ae 3f f2 c1 90 3f 37 fa fa 3f
       1.209354 1.3661933 1.1309187 1.960761
0000e0 87 73 8f 3f 96 4f c3 3f d8 d3 84 3f a3 92 9c 3f
       1.1207131 1.5258663 1.037715 1.223225
0000f0 a9 0a 58 3f d9 14 76 3f b3 20 9f 3f ec 9e ae 3f
       0.84391266 0.9612556 1.2431854 1.3642249
